<?xml version="1.0"?>
<net name="Model0" version="11">
	<layers>
		<layer id="0" name="input_values" type="Parameter" version="opset1">
			<data shape="?,?" element_type="f32" />
			<output>
				<port id="0" precision="FP32" names="input_values">
					<dim>-1</dim>
					<dim>-1</dim>
				</port>
			</output>
		</layer>
		<layer id="1" name="19" type="Const" version="opset1">
			<data element_type="i64" shape="" offset="0" size="8" />
			<output>
				<port id="0" precision="I64" names="19" />
			</output>
		</layer>
		<layer id="2" name="__module.wav2vec2.feature_extractor/aten::unsqueeze/Unsqueeze" type="Unsqueeze" version="opset1">
			<input>
				<port id="0" precision="FP32">
					<dim>-1</dim>
					<dim>-1</dim>
				</port>
				<port id="1" precision="I64" />
			</input>
			<output>
				<port id="2" precision="FP32" names="47,input.1">
					<dim>-1</dim>
					<dim>1</dim>
					<dim>-1</dim>
				</port>
			</output>
		</layer>
		<layer id="3" name="self.wav2vec2.feature_extractor.conv_layers.0.conv.weight_compressed" type="Const" version="opset1">
			<data element_type="f16" shape="512, 1, 10" offset="8" size="10240" />
			<output>
				<port id="0" precision="FP16" names="self.wav2vec2.feature_extractor.conv_layers.0.conv.weight">
					<dim>512</dim>
					<dim>1</dim>
					<dim>10</dim>
				</port>
			</output>
		</layer>
		<layer id="4" name="self.wav2vec2.feature_extractor.conv_layers.0.conv.weight" type="Convert" version="opset1">
			<data destination_type="f32" />
			<rt_info>
				<attribute name="decompression" version="0" />
			</rt_info>
			<input>
				<port id="0" precision="FP16">
					<dim>512</dim>
					<dim>1</dim>
					<dim>10</dim>
				</port>
			</input>
			<output>
				<port id="1" precision="FP32">
					<dim>512</dim>
					<dim>1</dim>
					<dim>10</dim>
				</port>
			</output>
		</layer>
		<layer id="5" name="__module.wav2vec2.feature_extractor.conv_layers.0.conv/aten::_convolution/Convolution" type="Convolution" version="opset1">
			<data strides="5" dilations="1" pads_begin="0" pads_end="0" auto_pad="explicit" />
			<input>
				<port id="0" precision="FP32">
					<dim>-1</dim>
					<dim>1</dim>
					<dim>-1</dim>
				</port>
				<port id="1" precision="FP32">
					<dim>512</dim>
					<dim>1</dim>
					<dim>10</dim>
				</port>
			</input>
			<output>
				<port id="2" precision="FP32">
					<dim>-1</dim>
					<dim>512</dim>
					<dim>-1</dim>
				</port>
			</output>
		</layer>
		<layer id="6" name="__module.wav2vec2.feature_extractor.conv_layers.0.conv/aten::_convolution/Reshape_compressed" type="Const" version="opset1">
			<data element_type="f16" shape="1, 512, 1" offset="10248" size="1024" />
			<output>
				<port id="0" precision="FP16">
					<dim>1</dim>
					<dim>512</dim>
					<dim>1</dim>
				</port>
			</output>
		</layer>
		<layer id="7" name="__module.wav2vec2.feature_extractor.conv_layers.0.conv/aten::_convolution/Reshape" type="Convert" version="opset1">
			<data destination_type="f32" />
			<rt_info>
				<attribute name="decompression" version="0" />
			</rt_info>
			<input>
				<port id="0" precision="FP16">
					<dim>1</dim>
					<dim>512</dim>
					<dim>1</dim>
				</port>
			</input>
			<output>
				<port id="1" precision="FP32">
					<dim>1</dim>
					<dim>512</dim>
					<dim>1</dim>
				</port>
			</output>
		</layer>
		<layer id="8" name="__module.wav2vec2.feature_extractor.conv_layers.0.conv/aten::_convolution/Add" type="Add" version="opset1">
			<data auto_broadcast="numpy" />
			<input>
				<port id="0" precision="FP32">
					<dim>-1</dim>
					<dim>512</dim>
					<dim>-1</dim>
				</port>
				<port id="1" precision="FP32">
					<dim>1</dim>
					<dim>512</dim>
					<dim>1</dim>
				</port>
			</input>
			<output>
				<port id="2" precision="FP32" names="57,hidden_states.1">
					<dim>-1</dim>
					<dim>512</dim>
					<dim>-1</dim>
				</port>
			</output>
		</layer>
		<layer id="9" name="__module.wav2vec2.feature_extractor.conv_layers.0/aten::transpose/Constant" type="Const" version="opset1">
			<data element_type="i32" shape="3" offset="11272" size="12" />
			<output>
				<port id="0" precision="I32">
					<dim>3</dim>
				</port>
			</output>
		</layer>
		<layer id="10" name="__module.wav2vec2.feature_extractor.conv_layers.0/aten::transpose/Transpose" type="Transpose" version="opset1">
			<input>
				<port id="0" precision="FP32">
					<dim>-1</dim>
					<dim>512</dim>
					<dim>-1</dim>
				</port>
				<port id="1" precision="I32">
					<dim>3</dim>
				</port>
			</input>
			<output>
				<port id="2" precision="FP32" names="58,input.3">
					<dim>-1</dim>
					<dim>-1</dim>
					<dim>512</dim>
				</port>
			</output>
		</layer>
		<layer id="11" name="__module.wav2vec2.feature_extractor.conv_layers.0.layer_norm/aten::layer_norm/Multiply" type="Const" version="opset1">
			<data element_type="i32" shape="1" offset="11284" size="4" />
			<output>
				<port id="0" precision="I32">
					<dim>1</dim>
				</port>
			</output>
		</layer>
		<layer id="12" name="__module.wav2vec2.feature_extractor.conv_layers.0.layer_norm/aten::layer_norm/MVN" type="MVN" version="opset6">
			<data eps="9.9999997473787516e-06" normalize_variance="true" eps_mode="INSIDE_SQRT" />
			<input>
				<port id="0" precision="FP32">
					<dim>-1</dim>
					<dim>-1</dim>
					<dim>512</dim>
				</port>
				<port id="1" precision="I32">
					<dim>1</dim>
				</port>
			</input>
			<output>
				<port id="2" precision="FP32">
					<dim>-1</dim>
					<dim>-1</dim>
					<dim>512</dim>
				</port>
			</output>
		</layer>
		<layer id="13" name="Constant_29968_compressed" type="Const" version="opset1">
			<data element_type="f16" shape="1, 1, 512" offset="11288" size="1024" />
			<output>
				<port id="0" precision="FP16">
					<dim>1</dim>
					<dim>1</dim>
					<dim>512</dim>
				</port>
			</output>
		</layer>
		<layer id="14" name="Constant_29968" type="Convert" version="opset1">
			<data destination_type="f32" />
			<rt_info>
				<attribute name="decompression" version="0" />
			</rt_info>
			<input>
				<port id="0" precision="FP16">
					<dim>1</dim>
					<dim>1</dim>
					<dim>512</dim>
				</port>
			</input>
			<output>
				<port id="1" precision="FP32">
					<dim>1</dim>
					<dim>1</dim>
					<dim>512</dim>
				</port>
			</output>
		</layer>
		<layer id="15" name="__module.wav2vec2.feature_extractor.conv_layers.0.layer_norm/aten::layer_norm/Multiply_1" type="Multiply" version="opset1">
			<data auto_broadcast="numpy" />
			<input>
				<port id="0" precision="FP32">
					<dim>-1</dim>
					<dim>-1</dim>
					<dim>512</dim>
				</port>
				<port id="1" precision="FP32">
					<dim>1</dim>
					<dim>1</dim>
					<dim>512</dim>
				</port>
			</input>
			<output>
				<port id="2" precision="FP32">
					<dim>-1</dim>
					<dim>-1</dim>
					<dim>512</dim>
				</port>
			</output>
		</layer>
		<layer id="16" name="Constant_29969_compressed" type="Const" version="opset1">
			<data element_type="f16" shape="1, 1, 512" offset="12312" size="1024" />
			<output>
				<port id="0" precision="FP16">
					<dim>1</dim>
					<dim>1</dim>
					<dim>512</dim>
				</port>
			</output>
		</layer>
		<layer id="17" name="Constant_29969" type="Convert" version="opset1">
			<data destination_type="f32" />
			<rt_info>
				<attribute name="decompression" version="0" />
			</rt_info>
			<input>
				<port id="0" precision="FP16">
					<dim>1</dim>
					<dim>1</dim>
					<dim>512</dim>
				</port>
			</input>
			<output>
				<port id="1" precision="FP32">
					<dim>1</dim>
					<dim>1</dim>
					<dim>512</dim>
				</port>
			</output>
		</layer>
		<layer id="18" name="__module.wav2vec2.feature_extractor.conv_layers.0.layer_norm/aten::layer_norm/Add" type="Add" version="opset1">
			<data auto_broadcast="numpy" />
			<input>
				<port id="0" precision="FP32">
					<dim>-1</dim>
					<dim>-1</dim>
					<dim>512</dim>
				</port>
				<port id="1" precision="FP32">
					<dim>1</dim>
					<dim>1</dim>
					<dim>512</dim>
				</port>
			</input>
			<output>
				<port id="2" precision="FP32" names="62,hidden_states.3">
					<dim>-1</dim>
					<dim>-1</dim>
					<dim>512</dim>
				</port>
			</output>
		</layer>
		<layer id="19" name="__module.wav2vec2.feature_extractor.conv_layers.0/aten::transpose/Constant_1" type="Const" version="opset1">
			<data element_type="i32" shape="3" offset="11272" size="12" />
			<output>
				<port id="0" precision="I32">
					<dim>3</dim>
				</port>
			</output>
		</layer>
		<layer id="20" name="__module.wav2vec2.feature_extractor.conv_layers.0/aten::transpose/Transpose_1" type="Transpose" version="opset1">
			<input>
				<port id="0" precision="FP32">
					<dim>-1</dim>
					<dim>-1</dim>
					<dim>512</dim>
				</port>
				<port id="1" precision="I32">
					<dim>3</dim>
				</port>
			</input>
			<output>
				<port id="2" precision="FP32" names="63,input.5">
					<dim>-1</dim>
					<dim>512</dim>
					<dim>-1</dim>
				</port>
			</output>
		</layer>
		<layer id="21" name="__module.wav2vec2.feature_extractor.conv_layers.0.activation/aten::gelu/Gelu" type="Gelu" version="opset7">
			<data approximation_mode="ERF" />
			<input>
				<port id="0" precision="FP32">
					<dim>-1</dim>
					<dim>512</dim>
					<dim>-1</dim>
				</port>
			</input>
			<output>
				<port id="1" precision="FP32" names="64,input.7">
					<dim>-1</dim>
					<dim>512</dim>
					<dim>-1</dim>
				</port>
			</output>
		</layer>
		<layer id="22" name="self.wav2vec2.feature_extractor.conv_layers.1.conv.weight_compressed" type="Const" version="opset1">
			<data element_type="f16" shape="512, 512, 3" offset="13336" size="1572864" />
			<output>
				<port id="0" precision="FP16" names="self.wav2vec2.feature_extractor.conv_layers.1.conv.weight">
					<dim>512</dim>
					<dim>512</dim>
					<dim>3</dim>
				</port>
			</output>
		</layer>
		<layer id="23" name="self.wav2vec2.feature_extractor.conv_layers.1.conv.weight" type="Convert" version="opset1">
			<data destination_type="f32" />
			<rt_info>
				<attribute name="decompression" version="0" />
			</rt_info>
			<input>
				<port id="0" precision="FP16">
					<dim>512</dim>
					<dim>512</dim>
					<dim>3</dim>
				</port>
			</input>
			<output>
				<port id="1" precision="FP32">
					<dim>512</dim>
					<dim>512</dim>
					<dim>3</dim>
				</port>
			</output>
		</layer>
		<layer id="24" name="__module.wav2vec2.feature_extractor.conv_layers.1.conv/aten::_convolution/Convolution" type="Convolution" version="opset1">
			<data strides="2" dilations="1" pads_begin="0" pads_end="0" auto_pad="explicit" />
			<input>
				<port id="0" precision="FP32">
					<dim>-1</dim>
					<dim>512</dim>
					<dim>-1</dim>
				</port>
				<port id="1" precision="FP32">
					<dim>512</dim>
					<dim>512</dim>
					<dim>3</dim>
				</port>
			</input>
			<output>
				<port id="2" precision="FP32">
					<dim>-1</dim>
					<dim>512</dim>
					<dim>-1</dim>
				</port>
			</output>
		</layer>
		<layer id="25" name="__module.wav2vec2.feature_extractor.conv_layers.1.conv/aten::_convolution/Reshape_compressed" type="Const" version="opset1">
			<data element_type="f16" shape="1, 512, 1" offset="1586200" size="1024" />
			<output>
				<port id="0" precision="FP16">
					<dim>1</dim>
					<dim>512</dim>
					<dim>1</dim>
				</port>
			</output>
		</layer>
		<layer id="26" name="__module.wav2vec2.feature_extractor.conv_layers.1.conv/aten::_convolution/Reshape" type="Convert" version="opset1">
			<data destination_type="f32" />
			<rt_info>
				<attribute name="decompression" version="0" />
			</rt_info>
			<input>
				<port id="0" precision="FP16">
					<dim>1</dim>
					<dim>512</dim>
					<dim>1</dim>
				</port>
			</input>
			<output>
				<port id="1" precision="FP32">
					<dim>1</dim>
					<dim>512</dim>
					<dim>1</dim>
				</port>
			</output>
		</layer>
		<layer id="27" name="__module.wav2vec2.feature_extractor.conv_layers.1.conv/aten::_convolution/Add" type="Add" version="opset1">
			<data auto_broadcast="numpy" />
			<input>
				<port id="0" precision="FP32">
					<dim>-1</dim>
					<dim>512</dim>
					<dim>-1</dim>
				</port>
				<port id="1" precision="FP32">
					<dim>1</dim>
					<dim>512</dim>
					<dim>1</dim>
				</port>
			</input>
			<output>
				<port id="2" precision="FP32" names="74,hidden_states.5">
					<dim>-1</dim>
					<dim>512</dim>
					<dim>-1</dim>
				</port>
			</output>
		</layer>
		<layer id="28" name="__module.wav2vec2.feature_extractor.conv_layers.1/aten::transpose/Constant" type="Const" version="opset1">
			<data element_type="i32" shape="3" offset="11272" size="12" />
			<output>
				<port id="0" precision="I32">
					<dim>3</dim>
				</port>
			</output>
		</layer>
		<layer id="29" name="__module.wav2vec2.feature_extractor.conv_layers.1/aten::transpose/Transpose" type="Transpose" version="opset1">
			<input>
				<port id="0" precision="FP32">
					<dim>-1</dim>
					<dim>512</dim>
					<dim>-1</dim>
				</port>
				<port id="1" precision="I32">
					<dim>3</dim>
				</port>
			</input>
			<output>
				<port id="2" precision="FP32" names="75,input.9">
					<dim>-1</dim>
					<dim>-1</dim>
					<dim>512</dim>
				</port>
			</output>
		</layer>
		<layer id="30" name="__module.wav2vec2.feature_extractor.conv_layers.1.layer_norm/aten::layer_norm/Multiply" type="Const" version="opset1">
			<data element_type="i32" shape="1" offset="11284" size="4" />
			<output>
				<port id="0" precision="I32">
					<dim>1</dim>
				</port>
			</output>
		</layer>
		<layer id="31" name="__module.wav2vec2.feature_extractor.conv_layers.1.layer_norm/aten::layer_norm/MVN" type="MVN" version="opset6">
			<data eps="9.9999997473787516e-06" normalize_variance="true" eps_mode="INSIDE_SQRT" />
			<input>
				<port id="0" precision="FP32">
					<dim>-1</dim>
					<dim>-1</dim>
					<dim>512</dim>
				</port>
				<port id="1" precision="I32">
					<dim>1</dim>
				</port>
			</input>
			<output>
				<port id="2" precision="FP32">
					<dim>-1</dim>
					<dim>-1</dim>
					<dim>512</dim>
				</port>
			</output>
		</layer>
		<layer id="32" name="Constant_29970_compressed" type="Const" version="opset1">
			<data element_type="f16" shape="1, 1, 512" offset="1587224" size="1024" />
			<output>
				<port id="0" precision="FP16">
					<dim>1</dim>
					<dim>1</dim>
					<dim>512</dim>
				</port>
			</output>
		</layer>
		<layer id="33" name="Constant_29970" type="Convert" version="opset1">
			<data destination_type="f32" />
			<rt_info>
				<attribute name="decompression" version="0" />
			</rt_info>
			<input>
				<port id="0" precision="FP16">
					<dim>1</dim>
					<dim>1</dim>
					<dim>512</dim>
				</port>
			</input>
			<output>
				<port id="1" precision="FP32">
					<dim>1</dim>
					<dim>1</dim>
					<dim>512</dim>
				</port>
			</output>
		</layer>
		<layer id="34" name="__module.wav2vec2.feature_extractor.conv_layers.1.layer_norm/aten::layer_norm/Multiply_1" type="Multiply" version="opset1">
			<data auto_broadcast="numpy" />
			<input>
				<port id="0" precision="FP32">
					<dim>-1</dim>
					<dim>-1</dim>
					<dim>512</dim>
				</port>
				<port id="1" precision="FP32">
					<dim>1</dim>
					<dim>1</dim>
					<dim>512</dim>
				</port>
			</input>
			<output>
				<port id="2" precision="FP32">
					<dim>-1</dim>
					<dim>-1</dim>
					<dim>512</dim>
				</port>
			</output>
		</layer>
		<layer id="35" name="Constant_29971_compressed" type="Const" version="opset1">
			<data element_type="f16" shape="1, 1, 512" offset="1588248" size="1024" />
			<output>
				<port id="0" precision="FP16">
					<dim>1</dim>
					<dim>1</dim>
					<dim>512</dim>
				</port>
			</output>
		</layer>
		<layer id="36" name="Constant_29971" type="Convert" version="opset1">
			<data destination_type="f32" />
			<rt_info>
				<attribute name="decompression" version="0" />
			</rt_info>
			<input>
				<port id="0" precision="FP16">
					<dim>1</dim>
					<dim>1</dim>
					<dim>512</dim>
				</port>
			</input>
			<output>
				<port id="1" precision="FP32">
					<dim>1</dim>
					<dim>1</dim>
					<dim>512</dim>
				</port>
			</output>
		</layer>
		<layer id="37" name="__module.wav2vec2.feature_extractor.conv_layers.1.layer_norm/aten::layer_norm/Add" type="Add" version="opset1">
			<data auto_broadcast="numpy" />
			<input>
				<port id="0" precision="FP32">
					<dim>-1</dim>
					<dim>-1</dim>
					<dim>512</dim>
				</port>
				<port id="1" precision="FP32">
					<dim>1</dim>
					<dim>1</dim>
					<dim>512</dim>
				</port>
			</input>
			<output>
				<port id="2" precision="FP32" names="79,hidden_states.7">
					<dim>-1</dim>
					<dim>-1</dim>
					<dim>512</dim>
				</port>
			</output>
		</layer>
		<layer id="38" name="__module.wav2vec2.feature_extractor.conv_layers.1/aten::transpose/Constant_1" type="Const" version="opset1">
			<data element_type="i32" shape="3" offset="11272" size="12" />
			<output>
				<port id="0" precision="I32">
					<dim>3</dim>
				</port>
			</output>
		</layer>
		<layer id="39" name="__module.wav2vec2.feature_extractor.conv_layers.1/aten::transpose/Transpose_1" type="Transpose" version="opset1">
			<input>
				<port id="0" precision="FP32">
					<dim>-1</dim>
					<dim>-1</dim>
					<dim>512</dim>
				</port>
				<port id="1" precision="I32">
					<dim>3</dim>
				</port>
			</input>
			<output>
				<port id="2" precision="FP32" names="80,input.11">
					<dim>-1</dim>
					<dim>512</dim>
					<dim>-1</dim>
				</port>
			</output>
		</layer>
		<layer id="40" name="__module.wav2vec2.feature_extractor.conv_layers.1.activation/aten::gelu/Gelu" type="Gelu" version="opset7">
			<data approximation_mode="ERF" />
			<input>
				<port id="0" precision="FP32">
					<dim>-1</dim>
					<dim>512</dim>
					<dim>-1</dim>
				</port>
			</input>
			<output>
				<port id="1" precision="FP32" names="81,input.13">
					<dim>-1</dim>
					<dim>512</dim>
					<dim>-1</dim>
				</port>
			</output>
		</layer>
		<layer id="41" name="self.wav2vec2.feature_extractor.conv_layers.2.conv.weight_compressed" type="Const" version="opset1">
			<data element_type="f16" shape="512, 512, 3" offset="1589272" size="1572864" />
			<output>
				<port id="0" precision="FP16" names="self.wav2vec2.feature_extractor.conv_layers.2.conv.weight">
					<dim>512</dim>
					<dim>512</dim>
					<dim>3</dim>
				</port>
			</output>
		</layer>
		<layer id="42" name="self.wav2vec2.feature_extractor.conv_layers.2.conv.weight" type="Convert" version="opset1">
			<data destination_type="f32" />
			<rt_info>
				<attribute name="decompression" version="0" />
			</rt_info>
			<input>
				<port id="0" precision="FP16">
					<dim>512</dim>
					<dim>512</dim>
					<dim>3</dim>
				</port>
			</input>
			<output>
				<port id="1" precision="FP32">
					<dim>512</dim>
					<dim>512</dim>
					<dim>3</dim>
				</port>
			</output>
		</layer>
		<layer id="43" name="__module.wav2vec2.feature_extractor.conv_layers.2.conv/aten::_convolution/Convolution" type="Convolution" version="opset1">
			<data strides="2" dilations="1" pads_begin="0" pads_end="0" auto_pad="explicit" />
			<input>
				<port id="0" precision="FP32">
					<dim>-1</dim>
					<dim>512</dim>
					<dim>-1</dim>
				</port>
				<port id="1" precision="FP32">
					<dim>512</dim>
					<dim>512</dim>
					<dim>3</dim>
				</port>
			</input>
			<output>
				<port id="2" precision="FP32">
					<dim>-1</dim>
					<dim>512</dim>
					<dim>-1</dim>
				</port>
			</output>
		</layer>
		<layer id="44" name="__module.wav2vec2.feature_extractor.conv_layers.2.conv/aten::_convolution/Reshape_compressed" type="Const" version="opset1">
			<data element_type="f16" shape="1, 512, 1" offset="3162136" size="1024" />
			<output>
				<port id="0" precision="FP16">
					<dim>1</dim>
					<dim>512</dim>
					<dim>1</dim>
				</port>
			</output>
		</layer>
		<layer id="45" name="__module.wav2vec2.feature_extractor.conv_layers.2.conv/aten::_convolution/Reshape" type="Convert" version="opset1">
			<data destination_type="f32" />
			<rt_info>
				<attribute name="decompression" version="0" />
			</rt_info>
			<input>
				<port id="0" precision="FP16">
					<dim>1</dim>
					<dim>512</dim>
					<dim>1</dim>
				</port>
			</input>
			<output>
				<port id="1" precision="FP32">
					<dim>1</dim>
					<dim>512</dim>
					<dim>1</dim>
				</port>
			</output>
		</layer>
		<layer id="46" name="__module.wav2vec2.feature_extractor.conv_layers.2.conv/aten::_convolution/Add" type="Add" version="opset1">
			<data auto_broadcast="numpy" />
			<input>
				<port id="0" precision="FP32">
					<dim>-1</dim>
					<dim>512</dim>
					<dim>-1</dim>
				</port>
				<port id="1" precision="FP32">
					<dim>1</dim>
					<dim>512</dim>
					<dim>1</dim>
				</port>
			</input>
			<output>
				<port id="2" precision="FP32" names="91,hidden_states.9">
					<dim>-1</dim>
					<dim>512</dim>
					<dim>-1</dim>
				</port>
			</output>
		</layer>
		<layer id="47" name="__module.wav2vec2.feature_extractor.conv_layers.2/aten::transpose/Constant" type="Const" version="opset1">
			<data element_type="i32" shape="3" offset="11272" size="12" />
			<output>
				<port id="0" precision="I32">
					<dim>3</dim>
				</port>
			</output>
		</layer>
		<layer id="48" name="__module.wav2vec2.feature_extractor.conv_layers.2/aten::transpose/Transpose" type="Transpose" version="opset1">
			<input>
				<port id="0" precision="FP32">
					<dim>-1</dim>
					<dim>512</dim>
					<dim>-1</dim>
				</port>
				<port id="1" precision="I32">
					<dim>3</dim>
				</port>
			</input>
			<output>
				<port id="2" precision="FP32" names="92,input.15">
					<dim>-1</dim>
					<dim>-1</dim>
					<dim>512</dim>
				</port>
			</output>
		</layer>
		<layer id="49" name="__module.wav2vec2.feature_extractor.conv_layers.2.layer_norm/aten::layer_norm/Multiply" type="Const" version="opset1">
			<data element_type="i32" shape="1" offset="11284" size="4" />
			<output>
				<port id="0" precision="I32">
					<dim>1</dim>
				</port>
			</output>
		</layer>
		<layer id="50" name="__module.wav2vec2.feature_extractor.conv_layers.2.layer_norm/aten::layer_norm/MVN" type="MVN" version="opset6">
			<data eps="9.9999997473787516e-06" normalize_variance="true" eps_mode="INSIDE_SQRT" />
			<input>
				<port id="0" precision="FP32">
					<dim>-1</dim>
					<dim>-1</dim>
					<dim>512</dim>
				</port>
				<port id="1" precision="I32">
					<dim>1</dim>
				</port>
			</input>
			<output>
				<port id="2" precision="FP32">
					<dim>-1</dim>
					<dim>-1</dim>
					<dim>512</dim>
				</port>
			</output>
		</layer>
		<layer id="51" name="Constant_29972_compressed" type="Const" version="opset1">
			<data element_type="f16" shape="1, 1, 512" offset="3163160" size="1024" />
			<output>
				<port id="0" precision="FP16">
					<dim>1</dim>
					<dim>1</dim>
					<dim>512</dim>
				</port>
			</output>
		</layer>
		<layer id="52" name="Constant_29972" type="Convert" version="opset1">
			<data destination_type="f32" />
			<rt_info>
				<attribute name="decompression" version="0" />
			</rt_info>
			<input>
				<port id="0" precision="FP16">
					<dim>1</dim>
					<dim>1</dim>
					<dim>512</dim>
				</port>
			</input>
			<output>
				<port id="1" precision="FP32">
					<dim>1</dim>
					<dim>1</dim>
					<dim>512</dim>
				</port>
			</output>
		</layer>
		<layer id="53" name="__module.wav2vec2.feature_extractor.conv_layers.2.layer_norm/aten::layer_norm/Multiply_1" type="Multiply" version="opset1">
			<data auto_broadcast="numpy" />
			<input>
				<port id="0" precision="FP32">
					<dim>-1</dim>
					<dim>-1</dim>
					<dim>512</dim>
				</port>
				<port id="1" precision="FP32">
					<dim>1</dim>
					<dim>1</dim>
					<dim>512</dim>
				</port>
			</input>
			<output>
				<port id="2" precision="FP32">
					<dim>-1</dim>
					<dim>-1</dim>
					<dim>512</dim>
				</port>
			</output>
		</layer>
		<layer id="54" name="Constant_29973_compressed" type="Const" version="opset1">
			<data element_type="f16" shape="1, 1, 512" offset="3164184" size="1024" />
			<output>
				<port id="0" precision="FP16">
					<dim>1</dim>
					<dim>1</dim>
					<dim>512</dim>
				</port>
			</output>
		</layer>
		<layer id="55" name="Constant_29973" type="Convert" version="opset1">
			<data destination_type="f32" />
			<rt_info>
				<attribute name="decompression" version="0" />
			</rt_info>
			<input>
				<port id="0" precision="FP16">
					<dim>1</dim>
					<dim>1</dim>
					<dim>512</dim>
				</port>
			</input>
			<output>
				<port id="1" precision="FP32">
					<dim>1</dim>
					<dim>1</dim>
					<dim>512</dim>
				</port>
			</output>
		</layer>
		<layer id="56" name="__module.wav2vec2.feature_extractor.conv_layers.2.layer_norm/aten::layer_norm/Add" type="Add" version="opset1">
			<data auto_broadcast="numpy" />
			<input>
				<port id="0" precision="FP32">
					<dim>-1</dim>
					<dim>-1</dim>
					<dim>512</dim>
				</port>
				<port id="1" precision="FP32">
					<dim>1</dim>
					<dim>1</dim>
					<dim>512</dim>
				</port>
			</input>
			<output>
				<port id="2" precision="FP32" names="96,hidden_states.11">
					<dim>-1</dim>
					<dim>-1</dim>
					<dim>512</dim>
				</port>
			</output>
		</layer>
		<layer id="57" name="__module.wav2vec2.feature_extractor.conv_layers.2/aten::transpose/Constant_1" type="Const" version="opset1">
			<data element_type="i32" shape="3" offset="11272" size="12" />
			<output>
				<port id="0" precision="I32">
					<dim>3</dim>
				</port>
			</output>
		</layer>
		<layer id="58" name="__module.wav2vec2.feature_extractor.conv_layers.2/aten::transpose/Transpose_1" type="Transpose" version="opset1">
			<input>
				<port id="0" precision="FP32">
					<dim>-1</dim>
					<dim>-1</dim>
					<dim>512</dim>
				</port>
				<port id="1" precision="I32">
					<dim>3</dim>
				</port>
			</input>
			<output>
				<port id="2" precision="FP32" names="97,input.17">
					<dim>-1</dim>
					<dim>512</dim>
					<dim>-1</dim>
				</port>
			</output>
		</layer>
		<layer id="59" name="__module.wav2vec2.feature_extractor.conv_layers.2.activation/aten::gelu/Gelu" type="Gelu" version="opset7">
			<data approximation_mode="ERF" />
			<input>
				<port id="0" precision="FP32">
					<dim>-1</dim>
					<dim>512</dim>
					<dim>-1</dim>
				</port>
			</input>
			<output>
				<port id="1" precision="FP32" names="98,input.19">
					<dim>-1</dim>
					<dim>512</dim>
					<dim>-1</dim>
				</port>
			</output>
		</layer>
		<layer id="60" name="self.wav2vec2.feature_extractor.conv_layers.3.conv.weight_compressed" type="Const" version="opset1">
			<data element_type="f16" shape="512, 512, 3" offset="3165208" size="1572864" />
			<output>
				<port id="0" precision="FP16" names="self.wav2vec2.feature_extractor.conv_layers.3.conv.weight">
					<dim>512</dim>
					<dim>512</dim>
					<dim>3</dim>
				</port>
			</output>
		</layer>
		<layer id="61" name="self.wav2vec2.feature_extractor.conv_layers.3.conv.weight" type="Convert" version="opset1">
			<data destination_type="f32" />
			<rt_info>
				<attribute name="decompression" version="0" />
			</rt_info>
			<input>
				<port id="0" precision="FP16">
					<dim>512</dim>
					<dim>512</dim>
					<dim>3</dim>
				</port>
			</input>
			<output>
				<port id="1" precision="FP32">
					<dim>512</dim>
					<dim>512</dim>
					<dim>3</dim>
				</port>
			</output>
		</layer>
		<layer id="62" name="__module.wav2vec2.feature_extractor.conv_layers.3.conv/aten::_convolution/Convolution" type="Convolution" version="opset1">
			<data strides="2" dilations="1" pads_begin="0" pads_end="0" auto_pad="explicit" />
			<input>
				<port id="0" precision="FP32">
					<dim>-1</dim>
					<dim>512</dim>
					<dim>-1</dim>
				</port>
				<port id="1" precision="FP32">
					<dim>512</dim>
					<dim>512</dim>
					<dim>3</dim>
				</port>
			</input>
			<output>
				<port id="2" precision="FP32">
					<dim>-1</dim>
					<dim>512</dim>
					<dim>-1</dim>
				</port>
			</output>
		</layer>
		<layer id="63" name="__module.wav2vec2.feature_extractor.conv_layers.3.conv/aten::_convolution/Reshape_compressed" type="Const" version="opset1">
			<data element_type="f16" shape="1, 512, 1" offset="4738072" size="1024" />
			<output>
				<port id="0" precision="FP16">
					<dim>1</dim>
					<dim>512</dim>
					<dim>1</dim>
				</port>
			</output>
		</layer>
		<layer id="64" name="__module.wav2vec2.feature_extractor.conv_layers.3.conv/aten::_convolution/Reshape" type="Convert" version="opset1">
			<data destination_type="f32" />
			<rt_info>
				<attribute name="decompression" version="0" />
			</rt_info>
			<input>
				<port id="0" precision="FP16">
					<dim>1</dim>
					<dim>512</dim>
					<dim>1</dim>
				</port>
			</input>
			<output>
				<port id="1" precision="FP32">
					<dim>1</dim>
					<dim>512</dim>
					<dim>1</dim>
				</port>
			</output>
		</layer>
		<layer id="65" name="__module.wav2vec2.feature_extractor.conv_layers.3.conv/aten::_convolution/Add" type="Add" version="opset1">
			<data auto_broadcast="numpy" />
			<input>
				<port id="0" precision="FP32">
					<dim>-1</dim>
					<dim>512</dim>
					<dim>-1</dim>
				</port>
				<port id="1" precision="FP32">
					<dim>1</dim>
					<dim>512</dim>
					<dim>1</dim>
				</port>
			</input>
			<output>
				<port id="2" precision="FP32" names="108,hidden_states.13">
					<dim>-1</dim>
					<dim>512</dim>
					<dim>-1</dim>
				</port>
			</output>
		</layer>
		<layer id="66" name="__module.wav2vec2.feature_extractor.conv_layers.3/aten::transpose/Constant" type="Const" version="opset1">
			<data element_type="i32" shape="3" offset="11272" size="12" />
			<output>
				<port id="0" precision="I32">
					<dim>3</dim>
				</port>
			</output>
		</layer>
		<layer id="67" name="__module.wav2vec2.feature_extractor.conv_layers.3/aten::transpose/Transpose" type="Transpose" version="opset1">
			<input>
				<port id="0" precision="FP32">
					<dim>-1</dim>
					<dim>512</dim>
					<dim>-1</dim>
				</port>
				<port id="1" precision="I32">
					<dim>3</dim>
				</port>
			</input>
			<output>
				<port id="2" precision="FP32" names="109,input.21">
					<dim>-1</dim>
					<dim>-1</dim>
					<dim>512</dim>
				</port>
			</output>
		</layer>
		<layer id="68" name="__module.wav2vec2.feature_extractor.conv_layers.3.layer_norm/aten::layer_norm/Multiply" type="Const" version="opset1">
			<data element_type="i32" shape="1" offset="11284" size="4" />
			<output>
				<port id="0" precision="I32">
					<dim>1</dim>
				</port>
			</output>
		</layer>
		<layer id="69" name="__module.wav2vec2.feature_extractor.conv_layers.3.layer_norm/aten::layer_norm/MVN" type="MVN" version="opset6">
			<data eps="9.9999997473787516e-06" normalize_variance="true" eps_mode="INSIDE_SQRT" />
			<input>
				<port id="0" precision="FP32">
					<dim>-1</dim>
					<dim>-1</dim>
					<dim>512</dim>
				</port>
				<port id="1" precision="I32">
					<dim>1</dim>
				</port>
			</input>
			<output>
				<port id="2" precision="FP32">
					<dim>-1</dim>
					<dim>-1</dim>
					<dim>512</dim>
				</port>
			</output>
		</layer>
		<layer id="70" name="Constant_29974_compressed" type="Const" version="opset1">
			<data element_type="f16" shape="1, 1, 512" offset="4739096" size="1024" />
			<output>
				<port id="0" precision="FP16">
					<dim>1</dim>
					<dim>1</dim>
					<dim>512</dim>
				</port>
			</output>
		</layer>
		<layer id="71" name="Constant_29974" type="Convert" version="opset1">
			<data destination_type="f32" />
			<rt_info>
				<attribute name="decompression" version="0" />
			</rt_info>
			<input>
				<port id="0" precision="FP16">
					<dim>1</dim>
					<dim>1</dim>
					<dim>512</dim>
				</port>
			</input>
			<output>
				<port id="1" precision="FP32">
					<dim>1</dim>
					<dim>1</dim>
					<dim>512</dim>
				</port>
			</output>
		</layer>
		<layer id="72" name="__module.wav2vec2.feature_extractor.conv_layers.3.layer_norm/aten::layer_norm/Multiply_1" type="Multiply" version="opset1">
			<data auto_broadcast="numpy" />
			<input>
				<port id="0" precision="FP32">
					<dim>-1</dim>
					<dim>-1</dim>
					<dim>512</dim>
				</port>
				<port id="1" precision="FP32">
					<dim>1</dim>
					<dim>1</dim>
					<dim>512</dim>
				</port>
			</input>
			<output>
				<port id="2" precision="FP32">
					<dim>-1</dim>
					<dim>-1</dim>
					<dim>512</dim>
				</port>
			</output>
		</layer>
		<layer id="73" name="Constant_29975_compressed" type="Const" version="opset1">
			<data element_type="f16" shape="1, 1, 512" offset="4740120" size="1024" />
			<output>
				<port id="0" precision="FP16">
					<dim>1</dim>
					<dim>1</dim>
					<dim>512</dim>
				</port>
			</output>
		</layer>
		<layer id="74" name="Constant_29975" type="Convert" version="opset1">
			<data destination_type="f32" />
			<rt_info>
				<attribute name="decompression" version="0" />
			</rt_info>
			<input>
				<port id="0" precision="FP16">
					<dim>1</dim>
					<dim>1</dim>
					<dim>512</dim>
				</port>
			</input>
			<output>
				<port id="1" precision="FP32">
					<dim>1</dim>
					<dim>1</dim>
					<dim>512</dim>
				</port>
			</output>
		</layer>
		<layer id="75" name="__module.wav2vec2.feature_extractor.conv_layers.3.layer_norm/aten::layer_norm/Add" type="Add" version="opset1">
			<data auto_broadcast="numpy" />
			<input>
				<port id="0" precision="FP32">
					<dim>-1</dim>
					<dim>-1</dim>
					<dim>512</dim>
				</port>
				<port id="1" precision="FP32">
					<dim>1</dim>
					<dim>1</dim>
					<dim>512</dim>
				</port>
			</input>
			<output>
				<port id="2" precision="FP32" names="113,hidden_states.15">
					<dim>-1</dim>
					<dim>-1</dim>
					<dim>512</dim>
				</port>
			</output>
		</layer>
		<layer id="76" name="__module.wav2vec2.feature_extractor.conv_layers.3/aten::transpose/Constant_1" type="Const" version="opset1">
			<data element_type="i32" shape="3" offset="11272" size="12" />
			<output>
				<port id="0" precision="I32">
					<dim>3</dim>
				</port>
			</output>
		</layer>
		<layer id="77" name="__module.wav2vec2.feature_extractor.conv_layers.3/aten::transpose/Transpose_1" type="Transpose" version="opset1">
			<input>
				<port id="0" precision="FP32">
					<dim>-1</dim>
					<dim>-1</dim>
					<dim>512</dim>
				</port>
				<port id="1" precision="I32">
					<dim>3</dim>
				</port>
			</input>
			<output>
				<port id="2" precision="FP32" names="114,input.23">
					<dim>-1</dim>
					<dim>512</dim>
					<dim>-1</dim>
				</port>
			</output>
		</layer>
		<layer id="78" name="__module.wav2vec2.feature_extractor.conv_layers.3.activation/aten::gelu/Gelu" type="Gelu" version="opset7">
			<data approximation_mode="ERF" />
			<input>
				<port id="0" precision="FP32">
					<dim>-1</dim>
					<dim>512</dim>
					<dim>-1</dim>
				</port>
			</input>
			<output>
				<port id="1" precision="FP32" names="115,input.25">
					<dim>-1</dim>
					<dim>512</dim>
					<dim>-1</dim>
				</port>
			</output>
		</layer>
		<layer id="79" name="self.wav2vec2.feature_extractor.conv_layers.4.conv.weight_compressed" type="Const" version="opset1">
			<data element_type="f16" shape="512, 512, 3" offset="4741144" size="1572864" />
			<output>
				<port id="0" precision="FP16" names="self.wav2vec2.feature_extractor.conv_layers.4.conv.weight">
					<dim>512</dim>
					<dim>512</dim>
					<dim>3</dim>
				</port>
			</output>
		</layer>
		<layer id="80" name="self.wav2vec2.feature_extractor.conv_layers.4.conv.weight" type="Convert" version="opset1">
			<data destination_type="f32" />
			<rt_info>
				<attribute name="decompression" version="0" />
			</rt_info>
			<input>
				<port id="0" precision="FP16">
					<dim>512</dim>
					<dim>512</dim>
					<dim>3</dim>
				</port>
			</input>
			<output>
				<port id="1" precision="FP32">
					<dim>512</dim>
					<dim>512</dim>
					<dim>3</dim>
				</port>
			</output>
		</layer>
		<layer id="81" name="__module.wav2vec2.feature_extractor.conv_layers.4.conv/aten::_convolution/Convolution" type="Convolution" version="opset1">
			<data strides="2" dilations="1" pads_begin="0" pads_end="0" auto_pad="explicit" />
			<input>
				<port id="0" precision="FP32">
					<dim>-1</dim>
					<dim>512</dim>
					<dim>-1</dim>
				</port>
				<port id="1" precision="FP32">
					<dim>512</dim>
					<dim>512</dim>
					<dim>3</dim>
				</port>
			</input>
			<output>
				<port id="2" precision="FP32">
					<dim>-1</dim>
					<dim>512</dim>
					<dim>-1</dim>
				</port>
			</output>
		</layer>
		<layer id="82" name="__module.wav2vec2.feature_extractor.conv_layers.4.conv/aten::_convolution/Reshape_compressed" type="Const" version="opset1">
			<data element_type="f16" shape="1, 512, 1" offset="6314008" size="1024" />
			<output>
				<port id="0" precision="FP16">
					<dim>1</dim>
					<dim>512</dim>
					<dim>1</dim>
				</port>
			</output>
		</layer>
		<layer id="83" name="__module.wav2vec2.feature_extractor.conv_layers.4.conv/aten::_convolution/Reshape" type="Convert" version="opset1">
			<data destination_type="f32" />
			<rt_info>
				<attribute name="decompression" version="0" />
			</rt_info>
			<input>
				<port id="0" precision="FP16">
					<dim>1</dim>
					<dim>512</dim>
					<dim>1</dim>
				</port>
			</input>
			<output>
				<port id="1" precision="FP32">
					<dim>1</dim>
					<dim>512</dim>
					<dim>1</dim>
				</port>
			</output>
		</layer>
		<layer id="84" name="__module.wav2vec2.feature_extractor.conv_layers.4.conv/aten::_convolution/Add" type="Add" version="opset1">
			<data auto_broadcast="numpy" />
			<input>
				<port id="0" precision="FP32">
					<dim>-1</dim>
					<dim>512</dim>
					<dim>-1</dim>
				</port>
				<port id="1" precision="FP32">
					<dim>1</dim>
					<dim>512</dim>
					<dim>1</dim>
				</port>
			</input>
			<output>
				<port id="2" precision="FP32" names="125,hidden_states.17">
					<dim>-1</dim>
					<dim>512</dim>
					<dim>-1</dim>
				</port>
			</output>
		</layer>
		<layer id="85" name="__module.wav2vec2.feature_extractor.conv_layers.4/aten::transpose/Constant" type="Const" version="opset1">
			<data element_type="i32" shape="3" offset="11272" size="12" />
			<output>
				<port id="0" precision="I32">
					<dim>3</dim>
				</port>
			</output>
		</layer>
		<layer id="86" name="__module.wav2vec2.feature_extractor.conv_layers.4/aten::transpose/Transpose" type="Transpose" version="opset1">
			<input>
				<port id="0" precision="FP32">
					<dim>-1</dim>
					<dim>512</dim>
					<dim>-1</dim>
				</port>
				<port id="1" precision="I32">
					<dim>3</dim>
				</port>
			</input>
			<output>
				<port id="2" precision="FP32" names="126,input.27">
					<dim>-1</dim>
					<dim>-1</dim>
					<dim>512</dim>
				</port>
			</output>
		</layer>
		<layer id="87" name="__module.wav2vec2.feature_extractor.conv_layers.4.layer_norm/aten::layer_norm/Multiply" type="Const" version="opset1">
			<data element_type="i32" shape="1" offset="11284" size="4" />
			<output>
				<port id="0" precision="I32">
					<dim>1</dim>
				</port>
			</output>
		</layer>
		<layer id="88" name="__module.wav2vec2.feature_extractor.conv_layers.4.layer_norm/aten::layer_norm/MVN" type="MVN" version="opset6">
			<data eps="9.9999997473787516e-06" normalize_variance="true" eps_mode="INSIDE_SQRT" />
			<input>
				<port id="0" precision="FP32">
					<dim>-1</dim>
					<dim>-1</dim>
					<dim>512</dim>
				</port>
				<port id="1" precision="I32">
					<dim>1</dim>
				</port>
			</input>
			<output>
				<port id="2" precision="FP32">
					<dim>-1</dim>
					<dim>-1</dim>
					<dim>512</dim>
				</port>
			</output>
		</layer>
		<layer id="89" name="Constant_29976_compressed" type="Const" version="opset1">
			<data element_type="f16" shape="1, 1, 512" offset="6315032" size="1024" />
			<output>
				<port id="0" precision="FP16">
					<dim>1</dim>
					<dim>1</dim>
					<dim>512</dim>
				</port>
			</output>
		</layer>
		<layer id="90" name="Constant_29976" type="Convert" version="opset1">
			<data destination_type="f32" />
			<rt_info>
				<attribute name="decompression" version="0" />
			</rt_info>
			<input>
				<port id="0" precision="FP16">
					<dim>1</dim>
					<dim>1</dim>
					<dim>512</dim>
				</port>
			</input>
			<output>
				<port id="1" precision="FP32">
					<dim>1</dim>
					<dim>1</dim>
					<dim>512</dim>
				</port>
			</output>
		</layer>
		<layer id="91" name="__module.wav2vec2.feature_extractor.conv_layers.4.layer_norm/aten::layer_norm/Multiply_1" type="Multiply" version="opset1">
			<data auto_broadcast="numpy" />
			<input>
				<port id="0" precision="FP32">
					<dim>-1</dim>
					<dim>-1</dim>
					<dim>512</dim>
				</port>
				<port id="1" precision="FP32">
					<dim>1</dim>
					<dim>1</dim>
					<dim>512</dim>
				</port>
			</input>
			<output>
				<port id="2" precision="FP32">
					<dim>-1</dim>
					<dim>-1</dim>
					<dim>512</dim>
				</port>
			</output>
		</layer>
		<layer id="92" name="Constant_29977_compressed" type="Const" version="opset1">
			<data element_type="f16" shape="1, 1, 512" offset="6316056" size="1024" />
			<output>
				<port id="0" precision="FP16">
					<dim>1</dim>
					<dim>1</dim>
					<dim>512</dim>
				</port>
			</output>
		</layer>
		<layer id="93" name="Constant_29977" type="Convert" version="opset1">
			<data destination_type="f32" />
			<rt_info>
				<attribute name="decompression" version="0" />
			</rt_info>
			<input>
				<port id="0" precision="FP16">
					<dim>1</dim>
					<dim>1</dim>
					<dim>512</dim>
				</port>
			</input>
			<output>
				<port id="1" precision="FP32">
					<dim>1</dim>
					<dim>1</dim>
					<dim>512</dim>
				</port>
			</output>
		</layer>
		<layer id="94" name="__module.wav2vec2.feature_extractor.conv_layers.4.layer_norm/aten::layer_norm/Add" type="Add" version="opset1">
			<data auto_broadcast="numpy" />
			<input>
				<port id="0" precision="FP32">
					<dim>-1</dim>
					<dim>-1</dim>
					<dim>512</dim>
				</port>
				<port id="1" precision="FP32">
					<dim>1</dim>
					<dim>1</dim>
					<dim>512</dim>
				</port>
			</input>
			<output>
				<port id="2" precision="FP32" names="130,hidden_states.19">
					<dim>-1</dim>
					<dim>-1</dim>
					<dim>512</dim>
				</port>
			</output>
		</layer>
		<layer id="95" name="__module.wav2vec2.feature_extractor.conv_layers.4/aten::transpose/Constant_1" type="Const" version="opset1">
			<data element_type="i32" shape="3" offset="11272" size="12" />
			<output>
				<port id="0" precision="I32">
					<dim>3</dim>
				</port>
			</output>
		</layer>
		<layer id="96" name="__module.wav2vec2.feature_extractor.conv_layers.4/aten::transpose/Transpose_1" type="Transpose" version="opset1">
			<input>
				<port id="0" precision="FP32">
					<dim>-1</dim>
					<dim>-1</dim>
					<dim>512</dim>
				</port>
				<port id="1" precision="I32">
					<dim>3</dim>
				</port>
			</input>
			<output>
				<port id="2" precision="FP32" names="131,input.29">
					<dim>-1</dim>
					<dim>512</dim>
					<dim>-1</dim>
				</port>
			</output>
		</layer>
		<layer id="97" name="__module.wav2vec2.feature_extractor.conv_layers.4.activation/aten::gelu/Gelu" type="Gelu" version="opset7">
			<data approximation_mode="ERF" />
			<input>
				<port id="0" precision="FP32">
					<dim>-1</dim>
					<dim>512</dim>
					<dim>-1</dim>
				</port>
			</input>
			<output>
				<port id="1" precision="FP32" names="132,input.31">
					<dim>-1</dim>
					<dim>512</dim>
					<dim>-1</dim>
				</port>
			</output>
		</layer>
		<layer id="98" name="self.wav2vec2.feature_extractor.conv_layers.5.conv.weight_compressed" type="Const" version="opset1">
			<data element_type="f16" shape="512, 512, 2" offset="6317080" size="1048576" />
			<output>
				<port id="0" precision="FP16" names="self.wav2vec2.feature_extractor.conv_layers.5.conv.weight">
					<dim>512</dim>
					<dim>512</dim>
					<dim>2</dim>
				</port>
			</output>
		</layer>
		<layer id="99" name="self.wav2vec2.feature_extractor.conv_layers.5.conv.weight" type="Convert" version="opset1">
			<data destination_type="f32" />
			<rt_info>
				<attribute name="decompression" version="0" />
			</rt_info>
			<input>
				<port id="0" precision="FP16">
					<dim>512</dim>
					<dim>512</dim>
					<dim>2</dim>
				</port>
			</input>
			<output>
				<port id="1" precision="FP32">
					<dim>512</dim>
					<dim>512</dim>
					<dim>2</dim>
				</port>
			</output>
		</layer>
		<layer id="100" name="__module.wav2vec2.feature_extractor.conv_layers.5.conv/aten::_convolution/Convolution" type="Convolution" version="opset1">
			<data strides="2" dilations="1" pads_begin="0" pads_end="0" auto_pad="explicit" />
			<input>
				<port id="0" precision="FP32">
					<dim>-1</dim>
					<dim>512</dim>
					<dim>-1</dim>
				</port>
				<port id="1" precision="FP32">
					<dim>512</dim>
					<dim>512</dim>
					<dim>2</dim>
				</port>
			</input>
			<output>
				<port id="2" precision="FP32">
					<dim>-1</dim>
					<dim>512</dim>
					<dim>-1</dim>
				</port>
			</output>
		</layer>
		<layer id="101" name="__module.wav2vec2.feature_extractor.conv_layers.5.conv/aten::_convolution/Reshape_compressed" type="Const" version="opset1">
			<data element_type="f16" shape="1, 512, 1" offset="7365656" size="1024" />
			<output>
				<port id="0" precision="FP16">
					<dim>1</dim>
					<dim>512</dim>
					<dim>1</dim>
				</port>
			</output>
		</layer>
		<layer id="102" name="__module.wav2vec2.feature_extractor.conv_layers.5.conv/aten::_convolution/Reshape" type="Convert" version="opset1">
			<data destination_type="f32" />
			<rt_info>
				<attribute name="decompression" version="0" />
			</rt_info>
			<input>
				<port id="0" precision="FP16">
					<dim>1</dim>
					<dim>512</dim>
					<dim>1</dim>
				</port>
			</input>
			<output>
				<port id="1" precision="FP32">
					<dim>1</dim>
					<dim>512</dim>
					<dim>1</dim>
				</port>
			</output>
		</layer>
		<layer id="103" name="__module.wav2vec2.feature_extractor.conv_layers.5.conv/aten::_convolution/Add" type="Add" version="opset1">
			<data auto_broadcast="numpy" />
			<input>
				<port id="0" precision="FP32">
					<dim>-1</dim>
					<dim>512</dim>
					<dim>-1</dim>
				</port>
				<port id="1" precision="FP32">
					<dim>1</dim>
					<dim>512</dim>
					<dim>1</dim>
				</port>
			</input>
			<output>
				<port id="2" precision="FP32" names="142,hidden_states.21">
					<dim>-1</dim>
					<dim>512</dim>
					<dim>-1</dim>
				</port>
			</output>
		</layer>
		<layer id="104" name="__module.wav2vec2.feature_extractor.conv_layers.5/aten::transpose/Constant" type="Const" version="opset1">
			<data element_type="i32" shape="3" offset="11272" size="12" />
			<output>
				<port id="0" precision="I32">
					<dim>3</dim>
				</port>
			</output>
		</layer>
		<layer id="105" name="__module.wav2vec2.feature_extractor.conv_layers.5/aten::transpose/Transpose" type="Transpose" version="opset1">
			<input>
				<port id="0" precision="FP32">
					<dim>-1</dim>
					<dim>512</dim>
					<dim>-1</dim>
				</port>
				<port id="1" precision="I32">
					<dim>3</dim>
				</port>
			</input>
			<output>
				<port id="2" precision="FP32" names="143,input.33">
					<dim>-1</dim>
					<dim>-1</dim>
					<dim>512</dim>
				</port>
			</output>
		</layer>
		<layer id="106" name="__module.wav2vec2.feature_extractor.conv_layers.5.layer_norm/aten::layer_norm/Multiply" type="Const" version="opset1">
			<data element_type="i32" shape="1" offset="11284" size="4" />
			<output>
				<port id="0" precision="I32">
					<dim>1</dim>
				</port>
			</output>
		</layer>
		<layer id="107" name="__module.wav2vec2.feature_extractor.conv_layers.5.layer_norm/aten::layer_norm/MVN" type="MVN" version="opset6">
			<data eps="9.9999997473787516e-06" normalize_variance="true" eps_mode="INSIDE_SQRT" />
			<input>
				<port id="0" precision="FP32">
					<dim>-1</dim>
					<dim>-1</dim>
					<dim>512</dim>
				</port>
				<port id="1" precision="I32">
					<dim>1</dim>
				</port>
			</input>
			<output>
				<port id="2" precision="FP32">
					<dim>-1</dim>
					<dim>-1</dim>
					<dim>512</dim>
				</port>
			</output>
		</layer>
		<layer id="108" name="Constant_29978_compressed" type="Const" version="opset1">
			<data element_type="f16" shape="1, 1, 512" offset="7366680" size="1024" />
			<output>
				<port id="0" precision="FP16">
					<dim>1</dim>
					<dim>1</dim>
					<dim>512</dim>
				</port>
			</output>
		</layer>
		<layer id="109" name="Constant_29978" type="Convert" version="opset1">
			<data destination_type="f32" />
			<rt_info>
				<attribute name="decompression" version="0" />
			</rt_info>
			<input>
				<port id="0" precision="FP16">
					<dim>1</dim>
					<dim>1</dim>
					<dim>512</dim>
				</port>
			</input>
			<output>
				<port id="1" precision="FP32">
					<dim>1</dim>
					<dim>1</dim>
					<dim>512</dim>
				</port>
			</output>
		</layer>
		<layer id="110" name="__module.wav2vec2.feature_extractor.conv_layers.5.layer_norm/aten::layer_norm/Multiply_1" type="Multiply" version="opset1">
			<data auto_broadcast="numpy" />
			<input>
				<port id="0" precision="FP32">
					<dim>-1</dim>
					<dim>-1</dim>
					<dim>512</dim>
				</port>
				<port id="1" precision="FP32">
					<dim>1</dim>
					<dim>1</dim>
					<dim>512</dim>
				</port>
			</input>
			<output>
				<port id="2" precision="FP32">
					<dim>-1</dim>
					<dim>-1</dim>
					<dim>512</dim>
				</port>
			</output>
		</layer>
		<layer id="111" name="Constant_29979_compressed" type="Const" version="opset1">
			<data element_type="f16" shape="1, 1, 512" offset="7367704" size="1024" />
			<output>
				<port id="0" precision="FP16">
					<dim>1</dim>
					<dim>1</dim>
					<dim>512</dim>
				</port>
			</output>
		</layer>
		<layer id="112" name="Constant_29979" type="Convert" version="opset1">
			<data destination_type="f32" />
			<rt_info>
				<attribute name="decompression" version="0" />
			</rt_info>
			<input>
				<port id="0" precision="FP16">
					<dim>1</dim>
					<dim>1</dim>
					<dim>512</dim>
				</port>
			</input>
			<output>
				<port id="1" precision="FP32">
					<dim>1</dim>
					<dim>1</dim>
					<dim>512</dim>
				</port>
			</output>
		</layer>
		<layer id="113" name="__module.wav2vec2.feature_extractor.conv_layers.5.layer_norm/aten::layer_norm/Add" type="Add" version="opset1">
			<data auto_broadcast="numpy" />
			<input>
				<port id="0" precision="FP32">
					<dim>-1</dim>
					<dim>-1</dim>
					<dim>512</dim>
				</port>
				<port id="1" precision="FP32">
					<dim>1</dim>
					<dim>1</dim>
					<dim>512</dim>
				</port>
			</input>
			<output>
				<port id="2" precision="FP32" names="147,hidden_states.23">
					<dim>-1</dim>
					<dim>-1</dim>
					<dim>512</dim>
				</port>
			</output>
		</layer>
		<layer id="114" name="__module.wav2vec2.feature_extractor.conv_layers.5/aten::transpose/Constant_1" type="Const" version="opset1">
			<data element_type="i32" shape="3" offset="11272" size="12" />
			<output>
				<port id="0" precision="I32">
					<dim>3</dim>
				</port>
			</output>
		</layer>
		<layer id="115" name="__module.wav2vec2.feature_extractor.conv_layers.5/aten::transpose/Transpose_1" type="Transpose" version="opset1">
			<input>
				<port id="0" precision="FP32">
					<dim>-1</dim>
					<dim>-1</dim>
					<dim>512</dim>
				</port>
				<port id="1" precision="I32">
					<dim>3</dim>
				</port>
			</input>
			<output>
				<port id="2" precision="FP32" names="148,input.35">
					<dim>-1</dim>
					<dim>512</dim>
					<dim>-1</dim>
				</port>
			</output>
		</layer>
		<layer id="116" name="__module.wav2vec2.feature_extractor.conv_layers.5.activation/aten::gelu/Gelu" type="Gelu" version="opset7">
			<data approximation_mode="ERF" />
			<input>
				<port id="0" precision="FP32">
					<dim>-1</dim>
					<dim>512</dim>
					<dim>-1</dim>
				</port>
			</input>
			<output>
				<port id="1" precision="FP32" names="149,input.37">
					<dim>-1</dim>
					<dim>512</dim>
					<dim>-1</dim>
				</port>
			</output>
		</layer>
		<layer id="117" name="self.wav2vec2.feature_extractor.conv_layers.6.conv.weight_compressed" type="Const" version="opset1">
			<data element_type="f16" shape="512, 512, 2" offset="7368728" size="1048576" />
			<output>
				<port id="0" precision="FP16" names="self.wav2vec2.feature_extractor.conv_layers.6.conv.weight">
					<dim>512</dim>
					<dim>512</dim>
					<dim>2</dim>
				</port>
			</output>
		</layer>
		<layer id="118" name="self.wav2vec2.feature_extractor.conv_layers.6.conv.weight" type="Convert" version="opset1">
			<data destination_type="f32" />
			<rt_info>
				<attribute name="decompression" version="0" />
			</rt_info>
			<input>
				<port id="0" precision="FP16">
					<dim>512</dim>
					<dim>512</dim>
					<dim>2</dim>
				</port>
			</input>
			<output>
				<port id="1" precision="FP32">
					<dim>512</dim>
					<dim>512</dim>
					<dim>2</dim>
				</port>
			</output>
		</layer>
		<layer id="119" name="__module.wav2vec2.feature_extractor.conv_layers.6.conv/aten::_convolution/Convolution" type="Convolution" version="opset1">
			<data strides="2" dilations="1" pads_begin="0" pads_end="0" auto_pad="explicit" />
			<input>
				<port id="0" precision="FP32">
					<dim>-1</dim>
					<dim>512</dim>
					<dim>-1</dim>
				</port>
				<port id="1" precision="FP32">
					<dim>512</dim>
					<dim>512</dim>
					<dim>2</dim>
				</port>
			</input>
			<output>
				<port id="2" precision="FP32">
					<dim>-1</dim>
					<dim>512</dim>
					<dim>-1</dim>
				</port>
			</output>
		</layer>
		<layer id="120" name="__module.wav2vec2.feature_extractor.conv_layers.6.conv/aten::_convolution/Reshape_compressed" type="Const" version="opset1">
			<data element_type="f16" shape="1, 512, 1" offset="8417304" size="1024" />
			<output>
				<port id="0" precision="FP16">
					<dim>1</dim>
					<dim>512</dim>
					<dim>1</dim>
				</port>
			</output>
		</layer>
		<layer id="121" name="__module.wav2vec2.feature_extractor.conv_layers.6.conv/aten::_convolution/Reshape" type="Convert" version="opset1">
			<data destination_type="f32" />
			<rt_info>
				<attribute name="decompression" version="0" />
			</rt_info>
			<input>
				<port id="0" precision="FP16">
					<dim>1</dim>
					<dim>512</dim>
					<dim>1</dim>
				</port>
			</input>
			<output>
				<port id="1" precision="FP32">
					<dim>1</dim>
					<dim>512</dim>
					<dim>1</dim>
				</port>
			</output>
		</layer>
		<layer id="122" name="__module.wav2vec2.feature_extractor.conv_layers.6.conv/aten::_convolution/Add" type="Add" version="opset1">
			<data auto_broadcast="numpy" />
			<input>
				<port id="0" precision="FP32">
					<dim>-1</dim>
					<dim>512</dim>
					<dim>-1</dim>
				</port>
				<port id="1" precision="FP32">
					<dim>1</dim>
					<dim>512</dim>
					<dim>1</dim>
				</port>
			</input>
			<output>
				<port id="2" precision="FP32" names="159,hidden_states.25">
					<dim>-1</dim>
					<dim>512</dim>
					<dim>-1</dim>
				</port>
			</output>
		</layer>
		<layer id="123" name="__module.wav2vec2.feature_extractor.conv_layers.6/aten::transpose/Constant" type="Const" version="opset1">
			<data element_type="i32" shape="3" offset="11272" size="12" />
			<output>
				<port id="0" precision="I32">
					<dim>3</dim>
				</port>
			</output>
		</layer>
		<layer id="124" name="__module.wav2vec2.feature_extractor.conv_layers.6/aten::transpose/Transpose" type="Transpose" version="opset1">
			<input>
				<port id="0" precision="FP32">
					<dim>-1</dim>
					<dim>512</dim>
					<dim>-1</dim>
				</port>
				<port id="1" precision="I32">
					<dim>3</dim>
				</port>
			</input>
			<output>
				<port id="2" precision="FP32" names="160,input.39">
					<dim>-1</dim>
					<dim>-1</dim>
					<dim>512</dim>
				</port>
			</output>
		</layer>
		<layer id="125" name="__module.wav2vec2.feature_extractor.conv_layers.6.layer_norm/aten::layer_norm/Multiply" type="Const" version="opset1">
			<data element_type="i32" shape="1" offset="11284" size="4" />
			<output>
				<port id="0" precision="I32">
					<dim>1</dim>
				</port>
			</output>
		</layer>
		<layer id="126" name="__module.wav2vec2.feature_extractor.conv_layers.6.layer_norm/aten::layer_norm/MVN" type="MVN" version="opset6">
			<data eps="9.9999997473787516e-06" normalize_variance="true" eps_mode="INSIDE_SQRT" />
			<input>
				<port id="0" precision="FP32">
					<dim>-1</dim>
					<dim>-1</dim>
					<dim>512</dim>
				</port>
				<port id="1" precision="I32">
					<dim>1</dim>
				</port>
			</input>
			<output>
				<port id="2" precision="FP32">
					<dim>-1</dim>
					<dim>-1</dim>
					<dim>512</dim>
				</port>
			</output>
		</layer>
		<layer id="127" name="Constant_29980_compressed" type="Const" version="opset1">
			<data element_type="f16" shape="1, 1, 512" offset="8418328" size="1024" />
			<output>
				<port id="0" precision="FP16">
					<dim>1</dim>
					<dim>1</dim>
					<dim>512</dim>
				</port>
			</output>
		</layer>
		<layer id="128" name="Constant_29980" type="Convert" version="opset1">
			<data destination_type="f32" />
			<rt_info>
				<attribute name="decompression" version="0" />
			</rt_info>
			<input>
				<port id="0" precision="FP16">
					<dim>1</dim>
					<dim>1</dim>
					<dim>512</dim>
				</port>
			</input>
			<output>
				<port id="1" precision="FP32">
					<dim>1</dim>
					<dim>1</dim>
					<dim>512</dim>
				</port>
			</output>
		</layer>
		<layer id="129" name="__module.wav2vec2.feature_extractor.conv_layers.6.layer_norm/aten::layer_norm/Multiply_1" type="Multiply" version="opset1">
			<data auto_broadcast="numpy" />
			<input>
				<port id="0" precision="FP32">
					<dim>-1</dim>
					<dim>-1</dim>
					<dim>512</dim>
				</port>
				<port id="1" precision="FP32">
					<dim>1</dim>
					<dim>1</dim>
					<dim>512</dim>
				</port>
			</input>
			<output>
				<port id="2" precision="FP32">
					<dim>-1</dim>
					<dim>-1</dim>
					<dim>512</dim>
				</port>
			</output>
		</layer>
		<layer id="130" name="Constant_29981_compressed" type="Const" version="opset1">
			<data element_type="f16" shape="1, 1, 512" offset="8419352" size="1024" />
			<output>
				<port id="0" precision="FP16">
					<dim>1</dim>
					<dim>1</dim>
					<dim>512</dim>
				</port>
			</output>
		</layer>
		<layer id="131" name="Constant_29981" type="Convert" version="opset1">
			<data destination_type="f32" />
			<rt_info>
				<attribute name="decompression" version="0" />
			</rt_info>
			<input>
				<port id="0" precision="FP16">
					<dim>1</dim>
					<dim>1</dim>
					<dim>512</dim>
				</port>
			</input>
			<output>
				<port id="1" precision="FP32">
					<dim>1</dim>
					<dim>1</dim>
					<dim>512</dim>
				</port>
			</output>
		</layer>
		<layer id="132" name="__module.wav2vec2.feature_extractor.conv_layers.6.layer_norm/aten::layer_norm/Add" type="Add" version="opset1">
			<data auto_broadcast="numpy" />
			<input>
				<port id="0" precision="FP32">
					<dim>-1</dim>
					<dim>-1</dim>
					<dim>512</dim>
				</port>
				<port id="1" precision="FP32">
					<dim>1</dim>
					<dim>1</dim>
					<dim>512</dim>
				</port>
			</input>
			<output>
				<port id="2" precision="FP32" names="164,hidden_states.27">
					<dim>-1</dim>
					<dim>-1</dim>
					<dim>512</dim>
				</port>
			</output>
		</layer>
		<layer id="133" name="__module.wav2vec2.feature_extractor.conv_layers.6/aten::transpose/Constant_1" type="Const" version="opset1">
			<data element_type="i32" shape="3" offset="11272" size="12" />
			<output>
				<port id="0" precision="I32">
					<dim>3</dim>
				</port>
			</output>
		</layer>
		<layer id="134" name="__module.wav2vec2.feature_extractor.conv_layers.6/aten::transpose/Transpose_1" type="Transpose" version="opset1">
			<input>
				<port id="0" precision="FP32">
					<dim>-1</dim>
					<dim>-1</dim>
					<dim>512</dim>
				</port>
				<port id="1" precision="I32">
					<dim>3</dim>
				</port>
			</input>
			<output>
				<port id="2" precision="FP32" names="165,input.41">
					<dim>-1</dim>
					<dim>512</dim>
					<dim>-1</dim>
				</port>
			</output>
		</layer>
		<layer id="135" name="__module.wav2vec2.feature_extractor.conv_layers.6.activation/aten::gelu/Gelu" type="Gelu" version="opset7">
			<data approximation_mode="ERF" />
			<input>
				<port id="0" precision="FP32">
					<dim>-1</dim>
					<dim>512</dim>
					<dim>-1</dim>
				</port>
			</input>
			<output>
				<port id="1" precision="FP32" names="166,extract_features">
					<dim>-1</dim>
					<dim>512</dim>
					<dim>-1</dim>
				</port>
			</output>
		</layer>
		<layer id="136" name="__module.wav2vec2/aten::transpose/Constant" type="Const" version="opset1">
			<data element_type="i32" shape="3" offset="11272" size="12" />
			<output>
				<port id="0" precision="I32">
					<dim>3</dim>
				</port>
			</output>
		</layer>
		<layer id="137" name="__module.wav2vec2/aten::transpose/Transpose" type="Transpose" version="opset1">
			<input>
				<port id="0" precision="FP32">
					<dim>-1</dim>
					<dim>512</dim>
					<dim>-1</dim>
				</port>
				<port id="1" precision="I32">
					<dim>3</dim>
				</port>
			</input>
			<output>
				<port id="2" precision="FP32" names="167,input.43">
					<dim>-1</dim>
					<dim>-1</dim>
					<dim>512</dim>
				</port>
			</output>
		</layer>
		<layer id="138" name="__module.wav2vec2.feature_projection.layer_norm/aten::layer_norm/Multiply" type="Const" version="opset1">
			<data element_type="i32" shape="1" offset="11284" size="4" />
			<output>
				<port id="0" precision="I32">
					<dim>1</dim>
				</port>
			</output>
		</layer>
		<layer id="139" name="__module.wav2vec2.feature_projection.layer_norm/aten::layer_norm/MVN" type="MVN" version="opset6">
			<data eps="9.9999997473787516e-06" normalize_variance="true" eps_mode="INSIDE_SQRT" />
			<input>
				<port id="0" precision="FP32">
					<dim>-1</dim>
					<dim>-1</dim>
					<dim>512</dim>
				</port>
				<port id="1" precision="I32">
					<dim>1</dim>
				</port>
			</input>
			<output>
				<port id="2" precision="FP32">
					<dim>-1</dim>
					<dim>-1</dim>
					<dim>512</dim>
				</port>
			</output>
		</layer>
		<layer id="140" name="Constant_29982_compressed" type="Const" version="opset1">
			<data element_type="f16" shape="1, 1, 512" offset="8420376" size="1024" />
			<output>
				<port id="0" precision="FP16">
					<dim>1</dim>
					<dim>1</dim>
					<dim>512</dim>
				</port>
			</output>
		</layer>
		<layer id="141" name="Constant_29982" type="Convert" version="opset1">
			<data destination_type="f32" />
			<rt_info>
				<attribute name="decompression" version="0" />
			</rt_info>
			<input>
				<port id="0" precision="FP16">
					<dim>1</dim>
					<dim>1</dim>
					<dim>512</dim>
				</port>
			</input>
			<output>
				<port id="1" precision="FP32">
					<dim>1</dim>
					<dim>1</dim>
					<dim>512</dim>
				</port>
			</output>
		</layer>
		<layer id="142" name="__module.wav2vec2.feature_projection.layer_norm/aten::layer_norm/Multiply_1" type="Multiply" version="opset1">
			<data auto_broadcast="numpy" />
			<input>
				<port id="0" precision="FP32">
					<dim>-1</dim>
					<dim>-1</dim>
					<dim>512</dim>
				</port>
				<port id="1" precision="FP32">
					<dim>1</dim>
					<dim>1</dim>
					<dim>512</dim>
				</port>
			</input>
			<output>
				<port id="2" precision="FP32">
					<dim>-1</dim>
					<dim>-1</dim>
					<dim>512</dim>
				</port>
			</output>
		</layer>
		<layer id="143" name="Constant_29983_compressed" type="Const" version="opset1">
			<data element_type="f16" shape="1, 1, 512" offset="8421400" size="1024" />
			<output>
				<port id="0" precision="FP16">
					<dim>1</dim>
					<dim>1</dim>
					<dim>512</dim>
				</port>
			</output>
		</layer>
		<layer id="144" name="Constant_29983" type="Convert" version="opset1">
			<data destination_type="f32" />
			<rt_info>
				<attribute name="decompression" version="0" />
			</rt_info>
			<input>
				<port id="0" precision="FP16">
					<dim>1</dim>
					<dim>1</dim>
					<dim>512</dim>
				</port>
			</input>
			<output>
				<port id="1" precision="FP32">
					<dim>1</dim>
					<dim>1</dim>
					<dim>512</dim>
				</port>
			</output>
		</layer>
		<layer id="145" name="__module.wav2vec2.feature_projection.layer_norm/aten::layer_norm/Add" type="Add" version="opset1">
			<data auto_broadcast="numpy" />
			<input>
				<port id="0" precision="FP32">
					<dim>-1</dim>
					<dim>-1</dim>
					<dim>512</dim>
				</port>
				<port id="1" precision="FP32">
					<dim>1</dim>
					<dim>1</dim>
					<dim>512</dim>
				</port>
			</input>
			<output>
				<port id="2" precision="FP32" names="174,input.45">
					<dim>-1</dim>
					<dim>-1</dim>
					<dim>512</dim>
				</port>
			</output>
		</layer>
		<layer id="146" name="self.wav2vec2.feature_projection.projection.weight_compressed" type="Const" version="opset1">
			<data element_type="f16" shape="1280, 512" offset="8422424" size="1310720" />
			<output>
				<port id="0" precision="FP16" names="self.wav2vec2.feature_projection.projection.weight">
					<dim>1280</dim>
					<dim>512</dim>
				</port>
			</output>
		</layer>
		<layer id="147" name="self.wav2vec2.feature_projection.projection.weight" type="Convert" version="opset1">
			<data destination_type="f32" />
			<rt_info>
				<attribute name="decompression" version="0" />
			</rt_info>
			<input>
				<port id="0" precision="FP16">
					<dim>1280</dim>
					<dim>512</dim>
				</port>
			</input>
			<output>
				<port id="1" precision="FP32">
					<dim>1280</dim>
					<dim>512</dim>
				</port>
			</output>
		</layer>
		<layer id="148" name="__module.wav2vec2.feature_projection.projection/aten::linear/MatMul" type="MatMul" version="opset1">
			<data transpose_a="false" transpose_b="true" />
			<input>
				<port id="0" precision="FP32">
					<dim>-1</dim>
					<dim>-1</dim>
					<dim>512</dim>
				</port>
				<port id="1" precision="FP32">
					<dim>1280</dim>
					<dim>512</dim>
				</port>
			</input>
			<output>
				<port id="2" precision="FP32">
					<dim>-1</dim>
					<dim>-1</dim>
					<dim>1280</dim>
				</port>
			</output>
		</layer>
		<layer id="149" name="Constant_29984_compressed" type="Const" version="opset1">
			<data element_type="f16" shape="1, 1, 1280" offset="9733144" size="2560" />
			<output>
				<port id="0" precision="FP16">
					<dim>1</dim>
					<dim>1</dim>
					<dim>1280</dim>
				</port>
			</output>
		</layer>
		<layer id="150" name="Constant_29984" type="Convert" version="opset1">
			<data destination_type="f32" />
			<rt_info>
				<attribute name="decompression" version="0" />
			</rt_info>
			<input>
				<port id="0" precision="FP16">
					<dim>1</dim>
					<dim>1</dim>
					<dim>1280</dim>
				</port>
			</input>
			<output>
				<port id="1" precision="FP32">
					<dim>1</dim>
					<dim>1</dim>
					<dim>1280</dim>
				</port>
			</output>
		</layer>
		<layer id="151" name="__module.wav2vec2.feature_projection.projection/aten::linear/Add" type="Add" version="opset1">
			<data auto_broadcast="numpy" />
			<input>
				<port id="0" precision="FP32">
					<dim>-1</dim>
					<dim>-1</dim>
					<dim>1280</dim>
				</port>
				<port id="1" precision="FP32">
					<dim>1</dim>
					<dim>1</dim>
					<dim>1280</dim>
				</port>
			</input>
			<output>
				<port id="2" precision="FP32" names="177,input.47">
					<dim>-1</dim>
					<dim>-1</dim>
					<dim>1280</dim>
				</port>
			</output>
		</layer>
		<layer id="152" name="__module.wav2vec2.encoder.pos_conv_embed/aten::transpose/Constant" type="Const" version="opset1">
			<data element_type="i32" shape="3" offset="11272" size="12" />
			<output>
				<port id="0" precision="I32">
					<dim>3</dim>
				</port>
			</output>
		</layer>
		<layer id="153" name="__module.wav2vec2.encoder.pos_conv_embed/aten::transpose/Transpose" type="Transpose" version="opset1">
			<input>
				<port id="0" precision="FP32">
					<dim>-1</dim>
					<dim>-1</dim>
					<dim>1280</dim>
				</port>
				<port id="1" precision="I32">
					<dim>3</dim>
				</port>
			</input>
			<output>
				<port id="2" precision="FP32" names="281,input.49">
					<dim>-1</dim>
					<dim>1280</dim>
					<dim>-1</dim>
				</port>
			</output>
		</layer>
		<layer id="154" name="__module.wav2vec2.encoder.pos_conv_embed.conv/aten::_convolution/Reshape_compressed" type="Const" version="opset1">
			<data element_type="f16" shape="16, 80, 80, 128" offset="9735704" size="26214400" />
			<output>
				<port id="0" precision="FP16">
					<dim>16</dim>
					<dim>80</dim>
					<dim>80</dim>
					<dim>128</dim>
				</port>
			</output>
		</layer>
		<layer id="155" name="__module.wav2vec2.encoder.pos_conv_embed.conv/aten::_convolution/Reshape" type="Convert" version="opset1">
			<data destination_type="f32" />
			<rt_info>
				<attribute name="decompression" version="0" />
			</rt_info>
			<input>
				<port id="0" precision="FP16">
					<dim>16</dim>
					<dim>80</dim>
					<dim>80</dim>
					<dim>128</dim>
				</port>
			</input>
			<output>
				<port id="1" precision="FP32">
					<dim>16</dim>
					<dim>80</dim>
					<dim>80</dim>
					<dim>128</dim>
				</port>
			</output>
		</layer>
		<layer id="156" name="__module.wav2vec2.encoder.pos_conv_embed.conv/aten::_convolution/GroupConvolution" type="GroupConvolution" version="opset1">
			<data strides="1" pads_begin="64" pads_end="64" dilations="1" auto_pad="explicit" />
			<input>
				<port id="0" precision="FP32">
					<dim>-1</dim>
					<dim>1280</dim>
					<dim>-1</dim>
				</port>
				<port id="1" precision="FP32">
					<dim>16</dim>
					<dim>80</dim>
					<dim>80</dim>
					<dim>128</dim>
				</port>
			</input>
			<output>
				<port id="2" precision="FP32">
					<dim>-1</dim>
					<dim>1280</dim>
					<dim>-1</dim>
				</port>
			</output>
		</layer>
		<layer id="157" name="__module.wav2vec2.encoder.pos_conv_embed.conv/aten::_convolution/Reshape_1_compressed" type="Const" version="opset1">
			<data element_type="f16" shape="1, 1280, 1" offset="35950104" size="2560" />
			<output>
				<port id="0" precision="FP16">
					<dim>1</dim>
					<dim>1280</dim>
					<dim>1</dim>
				</port>
			</output>
		</layer>
		<layer id="158" name="__module.wav2vec2.encoder.pos_conv_embed.conv/aten::_convolution/Reshape_1" type="Convert" version="opset1">
			<data destination_type="f32" />
			<rt_info>
				<attribute name="decompression" version="0" />
			</rt_info>
			<input>
				<port id="0" precision="FP16">
					<dim>1</dim>
					<dim>1280</dim>
					<dim>1</dim>
				</port>
			</input>
			<output>
				<port id="1" precision="FP32">
					<dim>1</dim>
					<dim>1280</dim>
					<dim>1</dim>
				</port>
			</output>
		</layer>
		<layer id="159" name="__module.wav2vec2.encoder.pos_conv_embed.conv/aten::_convolution/Add" type="Add" version="opset1">
			<data auto_broadcast="numpy" />
			<input>
				<port id="0" precision="FP32">
					<dim>-1</dim>
					<dim>1280</dim>
					<dim>-1</dim>
				</port>
				<port id="1" precision="FP32">
					<dim>1</dim>
					<dim>1280</dim>
					<dim>1</dim>
				</port>
			</input>
			<output>
				<port id="2" precision="FP32" names="293,294,295,hidden_states.31">
					<dim>-1</dim>
					<dim>1280</dim>
					<dim>-1</dim>
				</port>
			</output>
		</layer>
		<layer id="160" name="Constant_1883" type="Const" version="opset1">
			<data element_type="i64" shape="1" offset="35952664" size="8" />
			<output>
				<port id="0" precision="I64">
					<dim>1</dim>
				</port>
			</output>
		</layer>
		<layer id="161" name="Constant_1885" type="Const" version="opset1">
			<data element_type="i64" shape="1" offset="35952672" size="8" />
			<output>
				<port id="0" precision="I64">
					<dim>1</dim>
				</port>
			</output>
		</layer>
		<layer id="162" name="Constant_1887" type="Const" version="opset1">
			<data element_type="i64" shape="1" offset="0" size="8" />
			<output>
				<port id="0" precision="I64">
					<dim>1</dim>
				</port>
			</output>
		</layer>
		<layer id="163" name="Constant_1881" type="Const" version="opset1">
			<data element_type="i64" shape="1" offset="35952680" size="8" />
			<output>
				<port id="0" precision="I64">
					<dim>1</dim>
				</port>
			</output>
		</layer>
		<layer id="164" name="__module.wav2vec2.encoder.pos_conv_embed.padding/aten::slice/Slice_2" type="Slice" version="opset8">
			<input>
				<port id="0" precision="FP32">
					<dim>-1</dim>
					<dim>1280</dim>
					<dim>-1</dim>
				</port>
				<port id="1" precision="I64">
					<dim>1</dim>
				</port>
				<port id="2" precision="I64">
					<dim>1</dim>
				</port>
				<port id="3" precision="I64">
					<dim>1</dim>
				</port>
				<port id="4" precision="I64">
					<dim>1</dim>
				</port>
			</input>
			<output>
				<port id="5" precision="FP32" names="296,input.51">
					<dim>-1</dim>
					<dim>1280</dim>
					<dim>-1</dim>
				</port>
			</output>
		</layer>
		<layer id="165" name="__module.wav2vec2.encoder.pos_conv_embed.activation/aten::gelu/Gelu" type="Gelu" version="opset7">
			<data approximation_mode="ERF" />
			<input>
				<port id="0" precision="FP32">
					<dim>-1</dim>
					<dim>1280</dim>
					<dim>-1</dim>
				</port>
			</input>
			<output>
				<port id="1" precision="FP32" names="297,hidden_states.33">
					<dim>-1</dim>
					<dim>1280</dim>
					<dim>-1</dim>
				</port>
			</output>
		</layer>
		<layer id="166" name="__module.wav2vec2.encoder.pos_conv_embed/aten::transpose/Constant_1" type="Const" version="opset1">
			<data element_type="i32" shape="3" offset="11272" size="12" />
			<output>
				<port id="0" precision="I32">
					<dim>3</dim>
				</port>
			</output>
		</layer>
		<layer id="167" name="__module.wav2vec2.encoder.pos_conv_embed/aten::transpose/Transpose_1" type="Transpose" version="opset1">
			<input>
				<port id="0" precision="FP32">
					<dim>-1</dim>
					<dim>1280</dim>
					<dim>-1</dim>
				</port>
				<port id="1" precision="I32">
					<dim>3</dim>
				</port>
			</input>
			<output>
				<port id="2" precision="FP32" names="298,position_embeddings">
					<dim>-1</dim>
					<dim>-1</dim>
					<dim>1280</dim>
				</port>
			</output>
		</layer>
		<layer id="168" name="__module.wav2vec2.encoder/aten::add/Add" type="Add" version="opset1">
			<data auto_broadcast="numpy" />
			<input>
				<port id="0" precision="FP32">
					<dim>-1</dim>
					<dim>-1</dim>
					<dim>1280</dim>
				</port>
				<port id="1" precision="FP32">
					<dim>-1</dim>
					<dim>-1</dim>
					<dim>1280</dim>
				</port>
			</input>
			<output>
				<port id="2" precision="FP32" names="299,input.53">
					<dim>-1</dim>
					<dim>-1</dim>
					<dim>1280</dim>
				</port>
			</output>
		</layer>
		<layer id="169" name="__module.wav2vec2.encoder.layers.0.layer_norm/aten::layer_norm/Multiply" type="Const" version="opset1">
			<data element_type="i32" shape="1" offset="11284" size="4" />
			<output>
				<port id="0" precision="I32">
					<dim>1</dim>
				</port>
			</output>
		</layer>
		<layer id="170" name="__module.wav2vec2.encoder.layers.0.layer_norm/aten::layer_norm/MVN" type="MVN" version="opset6">
			<data eps="9.9999997473787516e-06" normalize_variance="true" eps_mode="INSIDE_SQRT" />
			<input>
				<port id="0" precision="FP32">
					<dim>-1</dim>
					<dim>-1</dim>
					<dim>1280</dim>
				</port>
				<port id="1" precision="I32">
					<dim>1</dim>
				</port>
			</input>
			<output>
				<port id="2" precision="FP32">
					<dim>-1</dim>
					<dim>-1</dim>
					<dim>1280</dim>
				</port>
			</output>
		</layer>
		<layer id="171" name="Constant_29985_compressed" type="Const" version="opset1">
			<data element_type="f16" shape="1, 1, 1280" offset="35952688" size="2560" />
			<output>
				<port id="0" precision="FP16">
					<dim>1</dim>
					<dim>1</dim>
					<dim>1280</dim>
				</port>
			</output>
		</layer>
		<layer id="172" name="Constant_29985" type="Convert" version="opset1">
			<data destination_type="f32" />
			<rt_info>
				<attribute name="decompression" version="0" />
			</rt_info>
			<input>
				<port id="0" precision="FP16">
					<dim>1</dim>
					<dim>1</dim>
					<dim>1280</dim>
				</port>
			</input>
			<output>
				<port id="1" precision="FP32">
					<dim>1</dim>
					<dim>1</dim>
					<dim>1280</dim>
				</port>
			</output>
		</layer>
		<layer id="173" name="__module.wav2vec2.encoder.layers.0.layer_norm/aten::layer_norm/Multiply_1" type="Multiply" version="opset1">
			<data auto_broadcast="numpy" />
			<input>
				<port id="0" precision="FP32">
					<dim>-1</dim>
					<dim>-1</dim>
					<dim>1280</dim>
				</port>
				<port id="1" precision="FP32">
					<dim>1</dim>
					<dim>1</dim>
					<dim>1280</dim>
				</port>
			</input>
			<output>
				<port id="2" precision="FP32">
					<dim>-1</dim>
					<dim>-1</dim>
					<dim>1280</dim>
				</port>
			</output>
		</layer>
		<layer id="174" name="Constant_29986_compressed" type="Const" version="opset1">
			<data element_type="f16" shape="1, 1, 1280" offset="35955248" size="2560" />
			<output>
				<port id="0" precision="FP16">
					<dim>1</dim>
					<dim>1</dim>
					<dim>1280</dim>
				</port>
			</output>
		</layer>
		<layer id="175" name="Constant_29986" type="Convert" version="opset1">
			<data destination_type="f32" />
			<rt_info>
				<attribute name="decompression" version="0" />
			</rt_info>
			<input>
				<port id="0" precision="FP16">
					<dim>1</dim>
					<dim>1</dim>
					<dim>1280</dim>
				</port>
			</input>
			<output>
				<port id="1" precision="FP32">
					<dim>1</dim>
					<dim>1</dim>
					<dim>1280</dim>
				</port>
			</output>
		</layer>
		<layer id="176" name="__module.wav2vec2.encoder.layers.0.layer_norm/aten::layer_norm/Add" type="Add" version="opset1">
			<data auto_broadcast="numpy" />
			<input>
				<port id="0" precision="FP32">
					<dim>-1</dim>
					<dim>-1</dim>
					<dim>1280</dim>
				</port>
				<port id="1" precision="FP32">
					<dim>1</dim>
					<dim>1</dim>
					<dim>1280</dim>
				</port>
			</input>
			<output>
				<port id="2" precision="FP32" names="309,hidden_states.35">
					<dim>-1</dim>
					<dim>-1</dim>
					<dim>1280</dim>
				</port>
			</output>
		</layer>
		<layer id="177" name="self.wav2vec2.encoder.layers.0.attention.q_proj.weight_compressed" type="Const" version="opset1">
			<data element_type="f16" shape="1280, 1280" offset="35957808" size="3276800" />
			<output>
				<port id="0" precision="FP16" names="self.wav2vec2.encoder.layers.0.attention.q_proj.weight">
					<dim>1280</dim>
					<dim>1280</dim>
				</port>
			</output>
		</layer>
		<layer id="178" name="self.wav2vec2.encoder.layers.0.attention.q_proj.weight" type="Convert" version="opset1">
			<data destination_type="f32" />
			<rt_info>
				<attribute name="decompression" version="0" />
			</rt_info>
			<input>
				<port id="0" precision="FP16">
					<dim>1280</dim>
					<dim>1280</dim>
				</port>
			</input>
			<output>
				<port id="1" precision="FP32">
					<dim>1280</dim>
					<dim>1280</dim>
				</port>
			</output>
		</layer>
		<layer id="179" name="__module.wav2vec2.encoder.layers.0.attention.q_proj/aten::linear/MatMul" type="MatMul" version="opset1">
			<data transpose_a="false" transpose_b="true" />
			<input>
				<port id="0" precision="FP32">
					<dim>-1</dim>
					<dim>-1</dim>
					<dim>1280</dim>
				</port>
				<port id="1" precision="FP32">
					<dim>1280</dim>
					<dim>1280</dim>
				</port>
			</input>
			<output>
				<port id="2" precision="FP32">
					<dim>-1</dim>
					<dim>-1</dim>
					<dim>1280</dim>
				</port>
			</output>
		</layer>
		<layer id="180" name="Constant_29987_compressed" type="Const" version="opset1">
			<data element_type="f16" shape="1, 1, 1280" offset="39234608" size="2560" />
			<output>
				<port id="0" precision="FP16">
					<dim>1</dim>
					<dim>1</dim>
					<dim>1280</dim>
				</port>
			</output>
		</layer>
		<layer id="181" name="Constant_29987" type="Convert" version="opset1">
			<data destination_type="f32" />
			<rt_info>
				<attribute name="decompression" version="0" />
			</rt_info>
			<input>
				<port id="0" precision="FP16">
					<dim>1</dim>
					<dim>1</dim>
					<dim>1280</dim>
				</port>
			</input>
			<output>
				<port id="1" precision="FP32">
					<dim>1</dim>
					<dim>1</dim>
					<dim>1280</dim>
				</port>
			</output>
		</layer>
		<layer id="182" name="__module.wav2vec2.encoder.layers.0.attention.q_proj/aten::linear/Add" type="Add" version="opset1">
			<data auto_broadcast="numpy" />
			<input>
				<port id="0" precision="FP32">
					<dim>-1</dim>
					<dim>-1</dim>
					<dim>1280</dim>
				</port>
				<port id="1" precision="FP32">
					<dim>1</dim>
					<dim>1</dim>
					<dim>1280</dim>
				</port>
			</input>
			<output>
				<port id="2" precision="FP32" names="318">
					<dim>-1</dim>
					<dim>-1</dim>
					<dim>1280</dim>
				</port>
			</output>
		</layer>
		<layer id="183" name="Constant_31094" type="Const" version="opset1">
			<data element_type="i64" shape="4" offset="39237168" size="32" />
			<rt_info>
				<attribute name="precise" version="0" />
			</rt_info>
			<output>
				<port id="0" precision="I64">
					<dim>4</dim>
				</port>
			</output>
		</layer>
		<layer id="184" name="__module.wav2vec2.encoder.layers.0.attention/aten::view/Reshape" type="Reshape" version="opset1">
			<data special_zero="true" />
			<input>
				<port id="0" precision="FP32">
					<dim>-1</dim>
					<dim>-1</dim>
					<dim>1280</dim>
				</port>
				<port id="1" precision="I64">
					<dim>4</dim>
				</port>
			</input>
			<output>
				<port id="2" precision="FP32" names="320">
					<dim>-1</dim>
					<dim>-1</dim>
					<dim>16</dim>
					<dim>80</dim>
				</port>
			</output>
		</layer>
		<layer id="185" name="__module.wav2vec2.encoder.layers.0.attention/aten::transpose/Constant" type="Const" version="opset1">
			<data element_type="i32" shape="4" offset="39237200" size="16" />
			<output>
				<port id="0" precision="I32">
					<dim>4</dim>
				</port>
			</output>
		</layer>
		<layer id="186" name="__module.wav2vec2.encoder.layers.0.attention/aten::transpose/Transpose" type="Transpose" version="opset1">
			<input>
				<port id="0" precision="FP32">
					<dim>-1</dim>
					<dim>-1</dim>
					<dim>16</dim>
					<dim>80</dim>
				</port>
				<port id="1" precision="I32">
					<dim>4</dim>
				</port>
			</input>
			<output>
				<port id="2" precision="FP32" names="321,query.1">
					<dim>-1</dim>
					<dim>16</dim>
					<dim>-1</dim>
					<dim>80</dim>
				</port>
			</output>
		</layer>
		<layer id="187" name="self.wav2vec2.encoder.layers.0.attention.k_proj.weight_compressed" type="Const" version="opset1">
			<data element_type="f16" shape="1280, 1280" offset="39237216" size="3276800" />
			<output>
				<port id="0" precision="FP16" names="self.wav2vec2.encoder.layers.0.attention.k_proj.weight">
					<dim>1280</dim>
					<dim>1280</dim>
				</port>
			</output>
		</layer>
		<layer id="188" name="self.wav2vec2.encoder.layers.0.attention.k_proj.weight" type="Convert" version="opset1">
			<data destination_type="f32" />
			<rt_info>
				<attribute name="decompression" version="0" />
			</rt_info>
			<input>
				<port id="0" precision="FP16">
					<dim>1280</dim>
					<dim>1280</dim>
				</port>
			</input>
			<output>
				<port id="1" precision="FP32">
					<dim>1280</dim>
					<dim>1280</dim>
				</port>
			</output>
		</layer>
		<layer id="189" name="__module.wav2vec2.encoder.layers.0.attention.k_proj/aten::linear/MatMul" type="MatMul" version="opset1">
			<data transpose_a="false" transpose_b="true" />
			<input>
				<port id="0" precision="FP32">
					<dim>-1</dim>
					<dim>-1</dim>
					<dim>1280</dim>
				</port>
				<port id="1" precision="FP32">
					<dim>1280</dim>
					<dim>1280</dim>
				</port>
			</input>
			<output>
				<port id="2" precision="FP32">
					<dim>-1</dim>
					<dim>-1</dim>
					<dim>1280</dim>
				</port>
			</output>
		</layer>
		<layer id="190" name="Constant_29988_compressed" type="Const" version="opset1">
			<data element_type="f16" shape="1, 1, 1280" offset="42514016" size="2560" />
			<output>
				<port id="0" precision="FP16">
					<dim>1</dim>
					<dim>1</dim>
					<dim>1280</dim>
				</port>
			</output>
		</layer>
		<layer id="191" name="Constant_29988" type="Convert" version="opset1">
			<data destination_type="f32" />
			<rt_info>
				<attribute name="decompression" version="0" />
			</rt_info>
			<input>
				<port id="0" precision="FP16">
					<dim>1</dim>
					<dim>1</dim>
					<dim>1280</dim>
				</port>
			</input>
			<output>
				<port id="1" precision="FP32">
					<dim>1</dim>
					<dim>1</dim>
					<dim>1280</dim>
				</port>
			</output>
		</layer>
		<layer id="192" name="__module.wav2vec2.encoder.layers.0.attention.k_proj/aten::linear/Add" type="Add" version="opset1">
			<data auto_broadcast="numpy" />
			<input>
				<port id="0" precision="FP32">
					<dim>-1</dim>
					<dim>-1</dim>
					<dim>1280</dim>
				</port>
				<port id="1" precision="FP32">
					<dim>1</dim>
					<dim>1</dim>
					<dim>1280</dim>
				</port>
			</input>
			<output>
				<port id="2" precision="FP32" names="324">
					<dim>-1</dim>
					<dim>-1</dim>
					<dim>1280</dim>
				</port>
			</output>
		</layer>
		<layer id="193" name="Constant_31095" type="Const" version="opset1">
			<data element_type="i64" shape="4" offset="39237168" size="32" />
			<rt_info>
				<attribute name="precise" version="0" />
			</rt_info>
			<output>
				<port id="0" precision="I64">
					<dim>4</dim>
				</port>
			</output>
		</layer>
		<layer id="194" name="__module.wav2vec2.encoder.layers.0.attention/aten::view/Reshape_1" type="Reshape" version="opset1">
			<data special_zero="true" />
			<input>
				<port id="0" precision="FP32">
					<dim>-1</dim>
					<dim>-1</dim>
					<dim>1280</dim>
				</port>
				<port id="1" precision="I64">
					<dim>4</dim>
				</port>
			</input>
			<output>
				<port id="2" precision="FP32" names="326">
					<dim>-1</dim>
					<dim>-1</dim>
					<dim>16</dim>
					<dim>80</dim>
				</port>
			</output>
		</layer>
		<layer id="195" name="__module.wav2vec2.encoder.layers.0.attention/aten::transpose/Constant_1" type="Const" version="opset1">
			<data element_type="i32" shape="4" offset="39237200" size="16" />
			<output>
				<port id="0" precision="I32">
					<dim>4</dim>
				</port>
			</output>
		</layer>
		<layer id="196" name="__module.wav2vec2.encoder.layers.0.attention/aten::transpose/Transpose_1" type="Transpose" version="opset1">
			<input>
				<port id="0" precision="FP32">
					<dim>-1</dim>
					<dim>-1</dim>
					<dim>16</dim>
					<dim>80</dim>
				</port>
				<port id="1" precision="I32">
					<dim>4</dim>
				</port>
			</input>
			<output>
				<port id="2" precision="FP32" names="327,key.1">
					<dim>-1</dim>
					<dim>16</dim>
					<dim>-1</dim>
					<dim>80</dim>
				</port>
			</output>
		</layer>
		<layer id="197" name="self.wav2vec2.encoder.layers.0.attention.v_proj.weight_compressed" type="Const" version="opset1">
			<data element_type="f16" shape="1280, 1280" offset="42516576" size="3276800" />
			<output>
				<port id="0" precision="FP16" names="self.wav2vec2.encoder.layers.0.attention.v_proj.weight">
					<dim>1280</dim>
					<dim>1280</dim>
				</port>
			</output>
		</layer>
		<layer id="198" name="self.wav2vec2.encoder.layers.0.attention.v_proj.weight" type="Convert" version="opset1">
			<data destination_type="f32" />
			<rt_info>
				<attribute name="decompression" version="0" />
			</rt_info>
			<input>
				<port id="0" precision="FP16">
					<dim>1280</dim>
					<dim>1280</dim>
				</port>
			</input>
			<output>
				<port id="1" precision="FP32">
					<dim>1280</dim>
					<dim>1280</dim>
				</port>
			</output>
		</layer>
		<layer id="199" name="__module.wav2vec2.encoder.layers.0.attention.v_proj/aten::linear/MatMul" type="MatMul" version="opset1">
			<data transpose_a="false" transpose_b="true" />
			<input>
				<port id="0" precision="FP32">
					<dim>-1</dim>
					<dim>-1</dim>
					<dim>1280</dim>
				</port>
				<port id="1" precision="FP32">
					<dim>1280</dim>
					<dim>1280</dim>
				</port>
			</input>
			<output>
				<port id="2" precision="FP32">
					<dim>-1</dim>
					<dim>-1</dim>
					<dim>1280</dim>
				</port>
			</output>
		</layer>
		<layer id="200" name="Constant_29989_compressed" type="Const" version="opset1">
			<data element_type="f16" shape="1, 1, 1280" offset="45793376" size="2560" />
			<output>
				<port id="0" precision="FP16">
					<dim>1</dim>
					<dim>1</dim>
					<dim>1280</dim>
				</port>
			</output>
		</layer>
		<layer id="201" name="Constant_29989" type="Convert" version="opset1">
			<data destination_type="f32" />
			<rt_info>
				<attribute name="decompression" version="0" />
			</rt_info>
			<input>
				<port id="0" precision="FP16">
					<dim>1</dim>
					<dim>1</dim>
					<dim>1280</dim>
				</port>
			</input>
			<output>
				<port id="1" precision="FP32">
					<dim>1</dim>
					<dim>1</dim>
					<dim>1280</dim>
				</port>
			</output>
		</layer>
		<layer id="202" name="__module.wav2vec2.encoder.layers.0.attention.v_proj/aten::linear/Add" type="Add" version="opset1">
			<data auto_broadcast="numpy" />
			<input>
				<port id="0" precision="FP32">
					<dim>-1</dim>
					<dim>-1</dim>
					<dim>1280</dim>
				</port>
				<port id="1" precision="FP32">
					<dim>1</dim>
					<dim>1</dim>
					<dim>1280</dim>
				</port>
			</input>
			<output>
				<port id="2" precision="FP32" names="330">
					<dim>-1</dim>
					<dim>-1</dim>
					<dim>1280</dim>
				</port>
			</output>
		</layer>
		<layer id="203" name="Constant_31096" type="Const" version="opset1">
			<data element_type="i64" shape="4" offset="39237168" size="32" />
			<rt_info>
				<attribute name="precise" version="0" />
			</rt_info>
			<output>
				<port id="0" precision="I64">
					<dim>4</dim>
				</port>
			</output>
		</layer>
		<layer id="204" name="__module.wav2vec2.encoder.layers.0.attention/aten::view/Reshape_2" type="Reshape" version="opset1">
			<data special_zero="true" />
			<input>
				<port id="0" precision="FP32">
					<dim>-1</dim>
					<dim>-1</dim>
					<dim>1280</dim>
				</port>
				<port id="1" precision="I64">
					<dim>4</dim>
				</port>
			</input>
			<output>
				<port id="2" precision="FP32" names="332">
					<dim>-1</dim>
					<dim>-1</dim>
					<dim>16</dim>
					<dim>80</dim>
				</port>
			</output>
		</layer>
		<layer id="205" name="__module.wav2vec2.encoder.layers.0.attention/aten::transpose/Constant_2" type="Const" version="opset1">
			<data element_type="i32" shape="4" offset="39237200" size="16" />
			<output>
				<port id="0" precision="I32">
					<dim>4</dim>
				</port>
			</output>
		</layer>
		<layer id="206" name="__module.wav2vec2.encoder.layers.0.attention/aten::transpose/Transpose_2" type="Transpose" version="opset1">
			<input>
				<port id="0" precision="FP32">
					<dim>-1</dim>
					<dim>-1</dim>
					<dim>16</dim>
					<dim>80</dim>
				</port>
				<port id="1" precision="I32">
					<dim>4</dim>
				</port>
			</input>
			<output>
				<port id="2" precision="FP32" names="333,value.1">
					<dim>-1</dim>
					<dim>16</dim>
					<dim>-1</dim>
					<dim>80</dim>
				</port>
			</output>
		</layer>
		<layer id="207" name="__module.wav2vec2.encoder.layers.0.attention/aten::scaled_dot_product_attention/ConvertLike_compressed" type="Const" version="opset1">
			<data element_type="f16" shape="" offset="45795936" size="2" />
			<output>
				<port id="0" precision="FP16" />
			</output>
		</layer>
		<layer id="208" name="__module.wav2vec2.encoder.layers.0.attention/aten::scaled_dot_product_attention/ConvertLike" type="Convert" version="opset1">
			<data destination_type="f32" />
			<rt_info>
				<attribute name="decompression" version="0" />
			</rt_info>
			<input>
				<port id="0" precision="FP16" />
			</input>
			<output>
				<port id="1" precision="FP32" />
			</output>
		</layer>
		<layer id="209" name="__module.wav2vec2.encoder.layers.0.attention/aten::scaled_dot_product_attention/ConvertLike_1_compressed" type="Const" version="opset1">
			<data element_type="f16" shape="" offset="45795938" size="2" />
			<output>
				<port id="0" precision="FP16" />
			</output>
		</layer>
		<layer id="210" name="__module.wav2vec2.encoder.layers.0.attention/aten::scaled_dot_product_attention/ConvertLike_1" type="Convert" version="opset1">
			<data destination_type="f32" />
			<rt_info>
				<attribute name="decompression" version="0" />
			</rt_info>
			<input>
				<port id="0" precision="FP16" />
			</input>
			<output>
				<port id="1" precision="FP32" />
			</output>
		</layer>
		<layer id="211" name="__module.wav2vec2.encoder.layers.0.attention/aten::scaled_dot_product_attention/ScaledDotProductAttention" type="ScaledDotProductAttention" version="opset13">
			<data causal="false" />
			<input>
				<port id="0" precision="FP32">
					<dim>-1</dim>
					<dim>16</dim>
					<dim>-1</dim>
					<dim>80</dim>
				</port>
				<port id="1" precision="FP32">
					<dim>-1</dim>
					<dim>16</dim>
					<dim>-1</dim>
					<dim>80</dim>
				</port>
				<port id="2" precision="FP32">
					<dim>-1</dim>
					<dim>16</dim>
					<dim>-1</dim>
					<dim>80</dim>
				</port>
				<port id="3" precision="FP32" />
				<port id="4" precision="FP32" />
			</input>
			<output>
				<port id="5" precision="FP32" names="334,attn_output.1">
					<dim>-1</dim>
					<dim>16</dim>
					<dim>-1</dim>
					<dim>80</dim>
				</port>
			</output>
		</layer>
		<layer id="212" name="__module.wav2vec2.encoder.layers.0.attention/aten::transpose/Constant_3" type="Const" version="opset1">
			<data element_type="i32" shape="4" offset="39237200" size="16" />
			<output>
				<port id="0" precision="I32">
					<dim>4</dim>
				</port>
			</output>
		</layer>
		<layer id="213" name="__module.wav2vec2.encoder.layers.0.attention/aten::transpose/Transpose_3" type="Transpose" version="opset1">
			<input>
				<port id="0" precision="FP32">
					<dim>-1</dim>
					<dim>16</dim>
					<dim>-1</dim>
					<dim>80</dim>
				</port>
				<port id="1" precision="I32">
					<dim>4</dim>
				</port>
			</input>
			<output>
				<port id="2" precision="FP32" names="335">
					<dim>-1</dim>
					<dim>-1</dim>
					<dim>16</dim>
					<dim>80</dim>
				</port>
			</output>
		</layer>
		<layer id="214" name="Constant_31097" type="Const" version="opset1">
			<data element_type="i64" shape="3" offset="45795940" size="24" />
			<rt_info>
				<attribute name="precise" version="0" />
			</rt_info>
			<output>
				<port id="0" precision="I64">
					<dim>3</dim>
				</port>
			</output>
		</layer>
		<layer id="215" name="__module.wav2vec2.encoder.layers.0.attention/aten::reshape/Reshape" type="Reshape" version="opset1">
			<data special_zero="true" />
			<input>
				<port id="0" precision="FP32">
					<dim>-1</dim>
					<dim>-1</dim>
					<dim>16</dim>
					<dim>80</dim>
				</port>
				<port id="1" precision="I64">
					<dim>3</dim>
				</port>
			</input>
			<output>
				<port id="2" precision="FP32" names="338">
					<dim>-1</dim>
					<dim>-1</dim>
					<dim>1280</dim>
				</port>
			</output>
		</layer>
		<layer id="216" name="self.wav2vec2.encoder.layers.0.attention.out_proj.weight_compressed" type="Const" version="opset1">
			<data element_type="f16" shape="1280, 1280" offset="45795964" size="3276800" />
			<output>
				<port id="0" precision="FP16" names="self.wav2vec2.encoder.layers.0.attention.out_proj.weight">
					<dim>1280</dim>
					<dim>1280</dim>
				</port>
			</output>
		</layer>
		<layer id="217" name="self.wav2vec2.encoder.layers.0.attention.out_proj.weight" type="Convert" version="opset1">
			<data destination_type="f32" />
			<rt_info>
				<attribute name="decompression" version="0" />
			</rt_info>
			<input>
				<port id="0" precision="FP16">
					<dim>1280</dim>
					<dim>1280</dim>
				</port>
			</input>
			<output>
				<port id="1" precision="FP32">
					<dim>1280</dim>
					<dim>1280</dim>
				</port>
			</output>
		</layer>
		<layer id="218" name="__module.wav2vec2.encoder.layers.0.attention.out_proj/aten::linear/MatMul" type="MatMul" version="opset1">
			<data transpose_a="false" transpose_b="true" />
			<input>
				<port id="0" precision="FP32">
					<dim>-1</dim>
					<dim>-1</dim>
					<dim>1280</dim>
				</port>
				<port id="1" precision="FP32">
					<dim>1280</dim>
					<dim>1280</dim>
				</port>
			</input>
			<output>
				<port id="2" precision="FP32">
					<dim>-1</dim>
					<dim>-1</dim>
					<dim>1280</dim>
				</port>
			</output>
		</layer>
		<layer id="219" name="Constant_29990_compressed" type="Const" version="opset1">
			<data element_type="f16" shape="1, 1, 1280" offset="49072764" size="2560" />
			<output>
				<port id="0" precision="FP16">
					<dim>1</dim>
					<dim>1</dim>
					<dim>1280</dim>
				</port>
			</output>
		</layer>
		<layer id="220" name="Constant_29990" type="Convert" version="opset1">
			<data destination_type="f32" />
			<rt_info>
				<attribute name="decompression" version="0" />
			</rt_info>
			<input>
				<port id="0" precision="FP16">
					<dim>1</dim>
					<dim>1</dim>
					<dim>1280</dim>
				</port>
			</input>
			<output>
				<port id="1" precision="FP32">
					<dim>1</dim>
					<dim>1</dim>
					<dim>1280</dim>
				</port>
			</output>
		</layer>
		<layer id="221" name="__module.wav2vec2.encoder.layers.0.attention.out_proj/aten::linear/Add" type="Add" version="opset1">
			<data auto_broadcast="numpy" />
			<input>
				<port id="0" precision="FP32">
					<dim>-1</dim>
					<dim>-1</dim>
					<dim>1280</dim>
				</port>
				<port id="1" precision="FP32">
					<dim>1</dim>
					<dim>1</dim>
					<dim>1280</dim>
				</port>
			</input>
			<output>
				<port id="2" precision="FP32" names="342,input.59">
					<dim>-1</dim>
					<dim>-1</dim>
					<dim>1280</dim>
				</port>
			</output>
		</layer>
		<layer id="222" name="__module.wav2vec2.encoder.layers.0/aten::add/Add" type="Add" version="opset1">
			<data auto_broadcast="numpy" />
			<input>
				<port id="0" precision="FP32">
					<dim>-1</dim>
					<dim>-1</dim>
					<dim>1280</dim>
				</port>
				<port id="1" precision="FP32">
					<dim>-1</dim>
					<dim>-1</dim>
					<dim>1280</dim>
				</port>
			</input>
			<output>
				<port id="2" precision="FP32" names="344,input.61">
					<dim>-1</dim>
					<dim>-1</dim>
					<dim>1280</dim>
				</port>
			</output>
		</layer>
		<layer id="223" name="__module.wav2vec2.encoder.layers.0.final_layer_norm/aten::layer_norm/Multiply" type="Const" version="opset1">
			<data element_type="i32" shape="1" offset="11284" size="4" />
			<output>
				<port id="0" precision="I32">
					<dim>1</dim>
				</port>
			</output>
		</layer>
		<layer id="224" name="__module.wav2vec2.encoder.layers.0.final_layer_norm/aten::layer_norm/MVN" type="MVN" version="opset6">
			<data eps="9.9999997473787516e-06" normalize_variance="true" eps_mode="INSIDE_SQRT" />
			<input>
				<port id="0" precision="FP32">
					<dim>-1</dim>
					<dim>-1</dim>
					<dim>1280</dim>
				</port>
				<port id="1" precision="I32">
					<dim>1</dim>
				</port>
			</input>
			<output>
				<port id="2" precision="FP32">
					<dim>-1</dim>
					<dim>-1</dim>
					<dim>1280</dim>
				</port>
			</output>
		</layer>
		<layer id="225" name="Constant_29991_compressed" type="Const" version="opset1">
			<data element_type="f16" shape="1, 1, 1280" offset="49075324" size="2560" />
			<output>
				<port id="0" precision="FP16">
					<dim>1</dim>
					<dim>1</dim>
					<dim>1280</dim>
				</port>
			</output>
		</layer>
		<layer id="226" name="Constant_29991" type="Convert" version="opset1">
			<data destination_type="f32" />
			<rt_info>
				<attribute name="decompression" version="0" />
			</rt_info>
			<input>
				<port id="0" precision="FP16">
					<dim>1</dim>
					<dim>1</dim>
					<dim>1280</dim>
				</port>
			</input>
			<output>
				<port id="1" precision="FP32">
					<dim>1</dim>
					<dim>1</dim>
					<dim>1280</dim>
				</port>
			</output>
		</layer>
		<layer id="227" name="__module.wav2vec2.encoder.layers.0.final_layer_norm/aten::layer_norm/Multiply_1" type="Multiply" version="opset1">
			<data auto_broadcast="numpy" />
			<input>
				<port id="0" precision="FP32">
					<dim>-1</dim>
					<dim>-1</dim>
					<dim>1280</dim>
				</port>
				<port id="1" precision="FP32">
					<dim>1</dim>
					<dim>1</dim>
					<dim>1280</dim>
				</port>
			</input>
			<output>
				<port id="2" precision="FP32">
					<dim>-1</dim>
					<dim>-1</dim>
					<dim>1280</dim>
				</port>
			</output>
		</layer>
		<layer id="228" name="Constant_29992_compressed" type="Const" version="opset1">
			<data element_type="f16" shape="1, 1, 1280" offset="49077884" size="2560" />
			<output>
				<port id="0" precision="FP16">
					<dim>1</dim>
					<dim>1</dim>
					<dim>1280</dim>
				</port>
			</output>
		</layer>
		<layer id="229" name="Constant_29992" type="Convert" version="opset1">
			<data destination_type="f32" />
			<rt_info>
				<attribute name="decompression" version="0" />
			</rt_info>
			<input>
				<port id="0" precision="FP16">
					<dim>1</dim>
					<dim>1</dim>
					<dim>1280</dim>
				</port>
			</input>
			<output>
				<port id="1" precision="FP32">
					<dim>1</dim>
					<dim>1</dim>
					<dim>1280</dim>
				</port>
			</output>
		</layer>
		<layer id="230" name="__module.wav2vec2.encoder.layers.0.final_layer_norm/aten::layer_norm/Add" type="Add" version="opset1">
			<data auto_broadcast="numpy" />
			<input>
				<port id="0" precision="FP32">
					<dim>-1</dim>
					<dim>-1</dim>
					<dim>1280</dim>
				</port>
				<port id="1" precision="FP32">
					<dim>1</dim>
					<dim>1</dim>
					<dim>1280</dim>
				</port>
			</input>
			<output>
				<port id="2" precision="FP32" names="348,input.63">
					<dim>-1</dim>
					<dim>-1</dim>
					<dim>1280</dim>
				</port>
			</output>
		</layer>
		<layer id="231" name="self.wav2vec2.encoder.layers.0.feed_forward.intermediate_dense.weight_compressed" type="Const" version="opset1">
			<data element_type="f16" shape="5120, 1280" offset="49080444" size="13107200" />
			<output>
				<port id="0" precision="FP16" names="self.wav2vec2.encoder.layers.0.feed_forward.intermediate_dense.weight">
					<dim>5120</dim>
					<dim>1280</dim>
				</port>
			</output>
		</layer>
		<layer id="232" name="self.wav2vec2.encoder.layers.0.feed_forward.intermediate_dense.weight" type="Convert" version="opset1">
			<data destination_type="f32" />
			<rt_info>
				<attribute name="decompression" version="0" />
			</rt_info>
			<input>
				<port id="0" precision="FP16">
					<dim>5120</dim>
					<dim>1280</dim>
				</port>
			</input>
			<output>
				<port id="1" precision="FP32">
					<dim>5120</dim>
					<dim>1280</dim>
				</port>
			</output>
		</layer>
		<layer id="233" name="__module.wav2vec2.encoder.layers.0.feed_forward.intermediate_dense/aten::linear/MatMul" type="MatMul" version="opset1">
			<data transpose_a="false" transpose_b="true" />
			<input>
				<port id="0" precision="FP32">
					<dim>-1</dim>
					<dim>-1</dim>
					<dim>1280</dim>
				</port>
				<port id="1" precision="FP32">
					<dim>5120</dim>
					<dim>1280</dim>
				</port>
			</input>
			<output>
				<port id="2" precision="FP32">
					<dim>-1</dim>
					<dim>-1</dim>
					<dim>5120</dim>
				</port>
			</output>
		</layer>
		<layer id="234" name="Constant_29993_compressed" type="Const" version="opset1">
			<data element_type="f16" shape="1, 1, 5120" offset="62187644" size="10240" />
			<output>
				<port id="0" precision="FP16">
					<dim>1</dim>
					<dim>1</dim>
					<dim>5120</dim>
				</port>
			</output>
		</layer>
		<layer id="235" name="Constant_29993" type="Convert" version="opset1">
			<data destination_type="f32" />
			<rt_info>
				<attribute name="decompression" version="0" />
			</rt_info>
			<input>
				<port id="0" precision="FP16">
					<dim>1</dim>
					<dim>1</dim>
					<dim>5120</dim>
				</port>
			</input>
			<output>
				<port id="1" precision="FP32">
					<dim>1</dim>
					<dim>1</dim>
					<dim>5120</dim>
				</port>
			</output>
		</layer>
		<layer id="236" name="__module.wav2vec2.encoder.layers.0.feed_forward.intermediate_dense/aten::linear/Add" type="Add" version="opset1">
			<data auto_broadcast="numpy" />
			<input>
				<port id="0" precision="FP32">
					<dim>-1</dim>
					<dim>-1</dim>
					<dim>5120</dim>
				</port>
				<port id="1" precision="FP32">
					<dim>1</dim>
					<dim>1</dim>
					<dim>5120</dim>
				</port>
			</input>
			<output>
				<port id="2" precision="FP32" names="356,input.65">
					<dim>-1</dim>
					<dim>-1</dim>
					<dim>5120</dim>
				</port>
			</output>
		</layer>
		<layer id="237" name="__module.wav2vec2.encoder.layers.0.feed_forward.intermediate_act_fn/aten::gelu/Gelu" type="Gelu" version="opset7">
			<data approximation_mode="ERF" />
			<input>
				<port id="0" precision="FP32">
					<dim>-1</dim>
					<dim>-1</dim>
					<dim>5120</dim>
				</port>
			</input>
			<output>
				<port id="1" precision="FP32" names="357,input.67">
					<dim>-1</dim>
					<dim>-1</dim>
					<dim>5120</dim>
				</port>
			</output>
		</layer>
		<layer id="238" name="self.wav2vec2.encoder.layers.0.feed_forward.output_dense.weight_compressed" type="Const" version="opset1">
			<data element_type="f16" shape="1280, 5120" offset="62197884" size="13107200" />
			<output>
				<port id="0" precision="FP16" names="self.wav2vec2.encoder.layers.0.feed_forward.output_dense.weight">
					<dim>1280</dim>
					<dim>5120</dim>
				</port>
			</output>
		</layer>
		<layer id="239" name="self.wav2vec2.encoder.layers.0.feed_forward.output_dense.weight" type="Convert" version="opset1">
			<data destination_type="f32" />
			<rt_info>
				<attribute name="decompression" version="0" />
			</rt_info>
			<input>
				<port id="0" precision="FP16">
					<dim>1280</dim>
					<dim>5120</dim>
				</port>
			</input>
			<output>
				<port id="1" precision="FP32">
					<dim>1280</dim>
					<dim>5120</dim>
				</port>
			</output>
		</layer>
		<layer id="240" name="__module.wav2vec2.encoder.layers.0.feed_forward.output_dense/aten::linear/MatMul" type="MatMul" version="opset1">
			<data transpose_a="false" transpose_b="true" />
			<input>
				<port id="0" precision="FP32">
					<dim>-1</dim>
					<dim>-1</dim>
					<dim>5120</dim>
				</port>
				<port id="1" precision="FP32">
					<dim>1280</dim>
					<dim>5120</dim>
				</port>
			</input>
			<output>
				<port id="2" precision="FP32">
					<dim>-1</dim>
					<dim>-1</dim>
					<dim>1280</dim>
				</port>
			</output>
		</layer>
		<layer id="241" name="Constant_29994_compressed" type="Const" version="opset1">
			<data element_type="f16" shape="1, 1, 1280" offset="75305084" size="2560" />
			<output>
				<port id="0" precision="FP16">
					<dim>1</dim>
					<dim>1</dim>
					<dim>1280</dim>
				</port>
			</output>
		</layer>
		<layer id="242" name="Constant_29994" type="Convert" version="opset1">
			<data destination_type="f32" />
			<rt_info>
				<attribute name="decompression" version="0" />
			</rt_info>
			<input>
				<port id="0" precision="FP16">
					<dim>1</dim>
					<dim>1</dim>
					<dim>1280</dim>
				</port>
			</input>
			<output>
				<port id="1" precision="FP32">
					<dim>1</dim>
					<dim>1</dim>
					<dim>1280</dim>
				</port>
			</output>
		</layer>
		<layer id="243" name="__module.wav2vec2.encoder.layers.0.feed_forward.output_dense/aten::linear/Add" type="Add" version="opset1">
			<data auto_broadcast="numpy" />
			<input>
				<port id="0" precision="FP32">
					<dim>-1</dim>
					<dim>-1</dim>
					<dim>1280</dim>
				</port>
				<port id="1" precision="FP32">
					<dim>1</dim>
					<dim>1</dim>
					<dim>1280</dim>
				</port>
			</input>
			<output>
				<port id="2" precision="FP32" names="361,input.71">
					<dim>-1</dim>
					<dim>-1</dim>
					<dim>1280</dim>
				</port>
			</output>
		</layer>
		<layer id="244" name="__module.wav2vec2.encoder.layers.0/aten::add/Add_1" type="Add" version="opset1">
			<data auto_broadcast="numpy" />
			<input>
				<port id="0" precision="FP32">
					<dim>-1</dim>
					<dim>-1</dim>
					<dim>1280</dim>
				</port>
				<port id="1" precision="FP32">
					<dim>-1</dim>
					<dim>-1</dim>
					<dim>1280</dim>
				</port>
			</input>
			<output>
				<port id="2" precision="FP32" names="363,input.73">
					<dim>-1</dim>
					<dim>-1</dim>
					<dim>1280</dim>
				</port>
			</output>
		</layer>
		<layer id="245" name="__module.wav2vec2.encoder.layers.1.layer_norm/aten::layer_norm/Multiply" type="Const" version="opset1">
			<data element_type="i32" shape="1" offset="11284" size="4" />
			<output>
				<port id="0" precision="I32">
					<dim>1</dim>
				</port>
			</output>
		</layer>
		<layer id="246" name="__module.wav2vec2.encoder.layers.1.layer_norm/aten::layer_norm/MVN" type="MVN" version="opset6">
			<data eps="9.9999997473787516e-06" normalize_variance="true" eps_mode="INSIDE_SQRT" />
			<input>
				<port id="0" precision="FP32">
					<dim>-1</dim>
					<dim>-1</dim>
					<dim>1280</dim>
				</port>
				<port id="1" precision="I32">
					<dim>1</dim>
				</port>
			</input>
			<output>
				<port id="2" precision="FP32">
					<dim>-1</dim>
					<dim>-1</dim>
					<dim>1280</dim>
				</port>
			</output>
		</layer>
		<layer id="247" name="Constant_29995_compressed" type="Const" version="opset1">
			<data element_type="f16" shape="1, 1, 1280" offset="75307644" size="2560" />
			<output>
				<port id="0" precision="FP16">
					<dim>1</dim>
					<dim>1</dim>
					<dim>1280</dim>
				</port>
			</output>
		</layer>
		<layer id="248" name="Constant_29995" type="Convert" version="opset1">
			<data destination_type="f32" />
			<rt_info>
				<attribute name="decompression" version="0" />
			</rt_info>
			<input>
				<port id="0" precision="FP16">
					<dim>1</dim>
					<dim>1</dim>
					<dim>1280</dim>
				</port>
			</input>
			<output>
				<port id="1" precision="FP32">
					<dim>1</dim>
					<dim>1</dim>
					<dim>1280</dim>
				</port>
			</output>
		</layer>
		<layer id="249" name="__module.wav2vec2.encoder.layers.1.layer_norm/aten::layer_norm/Multiply_1" type="Multiply" version="opset1">
			<data auto_broadcast="numpy" />
			<input>
				<port id="0" precision="FP32">
					<dim>-1</dim>
					<dim>-1</dim>
					<dim>1280</dim>
				</port>
				<port id="1" precision="FP32">
					<dim>1</dim>
					<dim>1</dim>
					<dim>1280</dim>
				</port>
			</input>
			<output>
				<port id="2" precision="FP32">
					<dim>-1</dim>
					<dim>-1</dim>
					<dim>1280</dim>
				</port>
			</output>
		</layer>
		<layer id="250" name="Constant_29996_compressed" type="Const" version="opset1">
			<data element_type="f16" shape="1, 1, 1280" offset="75310204" size="2560" />
			<output>
				<port id="0" precision="FP16">
					<dim>1</dim>
					<dim>1</dim>
					<dim>1280</dim>
				</port>
			</output>
		</layer>
		<layer id="251" name="Constant_29996" type="Convert" version="opset1">
			<data destination_type="f32" />
			<rt_info>
				<attribute name="decompression" version="0" />
			</rt_info>
			<input>
				<port id="0" precision="FP16">
					<dim>1</dim>
					<dim>1</dim>
					<dim>1280</dim>
				</port>
			</input>
			<output>
				<port id="1" precision="FP32">
					<dim>1</dim>
					<dim>1</dim>
					<dim>1280</dim>
				</port>
			</output>
		</layer>
		<layer id="252" name="__module.wav2vec2.encoder.layers.1.layer_norm/aten::layer_norm/Add" type="Add" version="opset1">
			<data auto_broadcast="numpy" />
			<input>
				<port id="0" precision="FP32">
					<dim>-1</dim>
					<dim>-1</dim>
					<dim>1280</dim>
				</port>
				<port id="1" precision="FP32">
					<dim>1</dim>
					<dim>1</dim>
					<dim>1280</dim>
				</port>
			</input>
			<output>
				<port id="2" precision="FP32" names="372,hidden_states.39">
					<dim>-1</dim>
					<dim>-1</dim>
					<dim>1280</dim>
				</port>
			</output>
		</layer>
		<layer id="253" name="self.wav2vec2.encoder.layers.1.attention.q_proj.weight_compressed" type="Const" version="opset1">
			<data element_type="f16" shape="1280, 1280" offset="75312764" size="3276800" />
			<output>
				<port id="0" precision="FP16" names="self.wav2vec2.encoder.layers.1.attention.q_proj.weight">
					<dim>1280</dim>
					<dim>1280</dim>
				</port>
			</output>
		</layer>
		<layer id="254" name="self.wav2vec2.encoder.layers.1.attention.q_proj.weight" type="Convert" version="opset1">
			<data destination_type="f32" />
			<rt_info>
				<attribute name="decompression" version="0" />
			</rt_info>
			<input>
				<port id="0" precision="FP16">
					<dim>1280</dim>
					<dim>1280</dim>
				</port>
			</input>
			<output>
				<port id="1" precision="FP32">
					<dim>1280</dim>
					<dim>1280</dim>
				</port>
			</output>
		</layer>
		<layer id="255" name="__module.wav2vec2.encoder.layers.1.attention.q_proj/aten::linear/MatMul" type="MatMul" version="opset1">
			<data transpose_a="false" transpose_b="true" />
			<input>
				<port id="0" precision="FP32">
					<dim>-1</dim>
					<dim>-1</dim>
					<dim>1280</dim>
				</port>
				<port id="1" precision="FP32">
					<dim>1280</dim>
					<dim>1280</dim>
				</port>
			</input>
			<output>
				<port id="2" precision="FP32">
					<dim>-1</dim>
					<dim>-1</dim>
					<dim>1280</dim>
				</port>
			</output>
		</layer>
		<layer id="256" name="Constant_29997_compressed" type="Const" version="opset1">
			<data element_type="f16" shape="1, 1, 1280" offset="78589564" size="2560" />
			<output>
				<port id="0" precision="FP16">
					<dim>1</dim>
					<dim>1</dim>
					<dim>1280</dim>
				</port>
			</output>
		</layer>
		<layer id="257" name="Constant_29997" type="Convert" version="opset1">
			<data destination_type="f32" />
			<rt_info>
				<attribute name="decompression" version="0" />
			</rt_info>
			<input>
				<port id="0" precision="FP16">
					<dim>1</dim>
					<dim>1</dim>
					<dim>1280</dim>
				</port>
			</input>
			<output>
				<port id="1" precision="FP32">
					<dim>1</dim>
					<dim>1</dim>
					<dim>1280</dim>
				</port>
			</output>
		</layer>
		<layer id="258" name="__module.wav2vec2.encoder.layers.1.attention.q_proj/aten::linear/Add" type="Add" version="opset1">
			<data auto_broadcast="numpy" />
			<input>
				<port id="0" precision="FP32">
					<dim>-1</dim>
					<dim>-1</dim>
					<dim>1280</dim>
				</port>
				<port id="1" precision="FP32">
					<dim>1</dim>
					<dim>1</dim>
					<dim>1280</dim>
				</port>
			</input>
			<output>
				<port id="2" precision="FP32" names="381">
					<dim>-1</dim>
					<dim>-1</dim>
					<dim>1280</dim>
				</port>
			</output>
		</layer>
		<layer id="259" name="Constant_31098" type="Const" version="opset1">
			<data element_type="i64" shape="4" offset="39237168" size="32" />
			<rt_info>
				<attribute name="precise" version="0" />
			</rt_info>
			<output>
				<port id="0" precision="I64">
					<dim>4</dim>
				</port>
			</output>
		</layer>
		<layer id="260" name="__module.wav2vec2.encoder.layers.1.attention/aten::view/Reshape" type="Reshape" version="opset1">
			<data special_zero="true" />
			<input>
				<port id="0" precision="FP32">
					<dim>-1</dim>
					<dim>-1</dim>
					<dim>1280</dim>
				</port>
				<port id="1" precision="I64">
					<dim>4</dim>
				</port>
			</input>
			<output>
				<port id="2" precision="FP32" names="383">
					<dim>-1</dim>
					<dim>-1</dim>
					<dim>16</dim>
					<dim>80</dim>
				</port>
			</output>
		</layer>
		<layer id="261" name="__module.wav2vec2.encoder.layers.1.attention/aten::transpose/Constant" type="Const" version="opset1">
			<data element_type="i32" shape="4" offset="39237200" size="16" />
			<output>
				<port id="0" precision="I32">
					<dim>4</dim>
				</port>
			</output>
		</layer>
		<layer id="262" name="__module.wav2vec2.encoder.layers.1.attention/aten::transpose/Transpose" type="Transpose" version="opset1">
			<input>
				<port id="0" precision="FP32">
					<dim>-1</dim>
					<dim>-1</dim>
					<dim>16</dim>
					<dim>80</dim>
				</port>
				<port id="1" precision="I32">
					<dim>4</dim>
				</port>
			</input>
			<output>
				<port id="2" precision="FP32" names="384,query.3">
					<dim>-1</dim>
					<dim>16</dim>
					<dim>-1</dim>
					<dim>80</dim>
				</port>
			</output>
		</layer>
		<layer id="263" name="self.wav2vec2.encoder.layers.1.attention.k_proj.weight_compressed" type="Const" version="opset1">
			<data element_type="f16" shape="1280, 1280" offset="78592124" size="3276800" />
			<output>
				<port id="0" precision="FP16" names="self.wav2vec2.encoder.layers.1.attention.k_proj.weight">
					<dim>1280</dim>
					<dim>1280</dim>
				</port>
			</output>
		</layer>
		<layer id="264" name="self.wav2vec2.encoder.layers.1.attention.k_proj.weight" type="Convert" version="opset1">
			<data destination_type="f32" />
			<rt_info>
				<attribute name="decompression" version="0" />
			</rt_info>
			<input>
				<port id="0" precision="FP16">
					<dim>1280</dim>
					<dim>1280</dim>
				</port>
			</input>
			<output>
				<port id="1" precision="FP32">
					<dim>1280</dim>
					<dim>1280</dim>
				</port>
			</output>
		</layer>
		<layer id="265" name="__module.wav2vec2.encoder.layers.1.attention.k_proj/aten::linear/MatMul" type="MatMul" version="opset1">
			<data transpose_a="false" transpose_b="true" />
			<input>
				<port id="0" precision="FP32">
					<dim>-1</dim>
					<dim>-1</dim>
					<dim>1280</dim>
				</port>
				<port id="1" precision="FP32">
					<dim>1280</dim>
					<dim>1280</dim>
				</port>
			</input>
			<output>
				<port id="2" precision="FP32">
					<dim>-1</dim>
					<dim>-1</dim>
					<dim>1280</dim>
				</port>
			</output>
		</layer>
		<layer id="266" name="Constant_29998_compressed" type="Const" version="opset1">
			<data element_type="f16" shape="1, 1, 1280" offset="81868924" size="2560" />
			<output>
				<port id="0" precision="FP16">
					<dim>1</dim>
					<dim>1</dim>
					<dim>1280</dim>
				</port>
			</output>
		</layer>
		<layer id="267" name="Constant_29998" type="Convert" version="opset1">
			<data destination_type="f32" />
			<rt_info>
				<attribute name="decompression" version="0" />
			</rt_info>
			<input>
				<port id="0" precision="FP16">
					<dim>1</dim>
					<dim>1</dim>
					<dim>1280</dim>
				</port>
			</input>
			<output>
				<port id="1" precision="FP32">
					<dim>1</dim>
					<dim>1</dim>
					<dim>1280</dim>
				</port>
			</output>
		</layer>
		<layer id="268" name="__module.wav2vec2.encoder.layers.1.attention.k_proj/aten::linear/Add" type="Add" version="opset1">
			<data auto_broadcast="numpy" />
			<input>
				<port id="0" precision="FP32">
					<dim>-1</dim>
					<dim>-1</dim>
					<dim>1280</dim>
				</port>
				<port id="1" precision="FP32">
					<dim>1</dim>
					<dim>1</dim>
					<dim>1280</dim>
				</port>
			</input>
			<output>
				<port id="2" precision="FP32" names="387">
					<dim>-1</dim>
					<dim>-1</dim>
					<dim>1280</dim>
				</port>
			</output>
		</layer>
		<layer id="269" name="Constant_31099" type="Const" version="opset1">
			<data element_type="i64" shape="4" offset="39237168" size="32" />
			<rt_info>
				<attribute name="precise" version="0" />
			</rt_info>
			<output>
				<port id="0" precision="I64">
					<dim>4</dim>
				</port>
			</output>
		</layer>
		<layer id="270" name="__module.wav2vec2.encoder.layers.1.attention/aten::view/Reshape_1" type="Reshape" version="opset1">
			<data special_zero="true" />
			<input>
				<port id="0" precision="FP32">
					<dim>-1</dim>
					<dim>-1</dim>
					<dim>1280</dim>
				</port>
				<port id="1" precision="I64">
					<dim>4</dim>
				</port>
			</input>
			<output>
				<port id="2" precision="FP32" names="389">
					<dim>-1</dim>
					<dim>-1</dim>
					<dim>16</dim>
					<dim>80</dim>
				</port>
			</output>
		</layer>
		<layer id="271" name="__module.wav2vec2.encoder.layers.1.attention/aten::transpose/Constant_1" type="Const" version="opset1">
			<data element_type="i32" shape="4" offset="39237200" size="16" />
			<output>
				<port id="0" precision="I32">
					<dim>4</dim>
				</port>
			</output>
		</layer>
		<layer id="272" name="__module.wav2vec2.encoder.layers.1.attention/aten::transpose/Transpose_1" type="Transpose" version="opset1">
			<input>
				<port id="0" precision="FP32">
					<dim>-1</dim>
					<dim>-1</dim>
					<dim>16</dim>
					<dim>80</dim>
				</port>
				<port id="1" precision="I32">
					<dim>4</dim>
				</port>
			</input>
			<output>
				<port id="2" precision="FP32" names="390,key.3">
					<dim>-1</dim>
					<dim>16</dim>
					<dim>-1</dim>
					<dim>80</dim>
				</port>
			</output>
		</layer>
		<layer id="273" name="self.wav2vec2.encoder.layers.1.attention.v_proj.weight_compressed" type="Const" version="opset1">
			<data element_type="f16" shape="1280, 1280" offset="81871484" size="3276800" />
			<output>
				<port id="0" precision="FP16" names="self.wav2vec2.encoder.layers.1.attention.v_proj.weight">
					<dim>1280</dim>
					<dim>1280</dim>
				</port>
			</output>
		</layer>
		<layer id="274" name="self.wav2vec2.encoder.layers.1.attention.v_proj.weight" type="Convert" version="opset1">
			<data destination_type="f32" />
			<rt_info>
				<attribute name="decompression" version="0" />
			</rt_info>
			<input>
				<port id="0" precision="FP16">
					<dim>1280</dim>
					<dim>1280</dim>
				</port>
			</input>
			<output>
				<port id="1" precision="FP32">
					<dim>1280</dim>
					<dim>1280</dim>
				</port>
			</output>
		</layer>
		<layer id="275" name="__module.wav2vec2.encoder.layers.1.attention.v_proj/aten::linear/MatMul" type="MatMul" version="opset1">
			<data transpose_a="false" transpose_b="true" />
			<input>
				<port id="0" precision="FP32">
					<dim>-1</dim>
					<dim>-1</dim>
					<dim>1280</dim>
				</port>
				<port id="1" precision="FP32">
					<dim>1280</dim>
					<dim>1280</dim>
				</port>
			</input>
			<output>
				<port id="2" precision="FP32">
					<dim>-1</dim>
					<dim>-1</dim>
					<dim>1280</dim>
				</port>
			</output>
		</layer>
		<layer id="276" name="Constant_29999_compressed" type="Const" version="opset1">
			<data element_type="f16" shape="1, 1, 1280" offset="85148284" size="2560" />
			<output>
				<port id="0" precision="FP16">
					<dim>1</dim>
					<dim>1</dim>
					<dim>1280</dim>
				</port>
			</output>
		</layer>
		<layer id="277" name="Constant_29999" type="Convert" version="opset1">
			<data destination_type="f32" />
			<rt_info>
				<attribute name="decompression" version="0" />
			</rt_info>
			<input>
				<port id="0" precision="FP16">
					<dim>1</dim>
					<dim>1</dim>
					<dim>1280</dim>
				</port>
			</input>
			<output>
				<port id="1" precision="FP32">
					<dim>1</dim>
					<dim>1</dim>
					<dim>1280</dim>
				</port>
			</output>
		</layer>
		<layer id="278" name="__module.wav2vec2.encoder.layers.1.attention.v_proj/aten::linear/Add" type="Add" version="opset1">
			<data auto_broadcast="numpy" />
			<input>
				<port id="0" precision="FP32">
					<dim>-1</dim>
					<dim>-1</dim>
					<dim>1280</dim>
				</port>
				<port id="1" precision="FP32">
					<dim>1</dim>
					<dim>1</dim>
					<dim>1280</dim>
				</port>
			</input>
			<output>
				<port id="2" precision="FP32" names="393">
					<dim>-1</dim>
					<dim>-1</dim>
					<dim>1280</dim>
				</port>
			</output>
		</layer>
		<layer id="279" name="Constant_31100" type="Const" version="opset1">
			<data element_type="i64" shape="4" offset="39237168" size="32" />
			<rt_info>
				<attribute name="precise" version="0" />
			</rt_info>
			<output>
				<port id="0" precision="I64">
					<dim>4</dim>
				</port>
			</output>
		</layer>
		<layer id="280" name="__module.wav2vec2.encoder.layers.1.attention/aten::view/Reshape_2" type="Reshape" version="opset1">
			<data special_zero="true" />
			<input>
				<port id="0" precision="FP32">
					<dim>-1</dim>
					<dim>-1</dim>
					<dim>1280</dim>
				</port>
				<port id="1" precision="I64">
					<dim>4</dim>
				</port>
			</input>
			<output>
				<port id="2" precision="FP32" names="395">
					<dim>-1</dim>
					<dim>-1</dim>
					<dim>16</dim>
					<dim>80</dim>
				</port>
			</output>
		</layer>
		<layer id="281" name="__module.wav2vec2.encoder.layers.1.attention/aten::transpose/Constant_2" type="Const" version="opset1">
			<data element_type="i32" shape="4" offset="39237200" size="16" />
			<output>
				<port id="0" precision="I32">
					<dim>4</dim>
				</port>
			</output>
		</layer>
		<layer id="282" name="__module.wav2vec2.encoder.layers.1.attention/aten::transpose/Transpose_2" type="Transpose" version="opset1">
			<input>
				<port id="0" precision="FP32">
					<dim>-1</dim>
					<dim>-1</dim>
					<dim>16</dim>
					<dim>80</dim>
				</port>
				<port id="1" precision="I32">
					<dim>4</dim>
				</port>
			</input>
			<output>
				<port id="2" precision="FP32" names="396,value.3">
					<dim>-1</dim>
					<dim>16</dim>
					<dim>-1</dim>
					<dim>80</dim>
				</port>
			</output>
		</layer>
		<layer id="283" name="__module.wav2vec2.encoder.layers.1.attention/aten::scaled_dot_product_attention/ConvertLike_compressed" type="Const" version="opset1">
			<data element_type="f16" shape="" offset="45795936" size="2" />
			<output>
				<port id="0" precision="FP16" />
			</output>
		</layer>
		<layer id="284" name="__module.wav2vec2.encoder.layers.1.attention/aten::scaled_dot_product_attention/ConvertLike" type="Convert" version="opset1">
			<data destination_type="f32" />
			<rt_info>
				<attribute name="decompression" version="0" />
			</rt_info>
			<input>
				<port id="0" precision="FP16" />
			</input>
			<output>
				<port id="1" precision="FP32" />
			</output>
		</layer>
		<layer id="285" name="__module.wav2vec2.encoder.layers.1.attention/aten::scaled_dot_product_attention/ScaledDotProductAttention" type="ScaledDotProductAttention" version="opset13">
			<data causal="false" />
			<input>
				<port id="0" precision="FP32">
					<dim>-1</dim>
					<dim>16</dim>
					<dim>-1</dim>
					<dim>80</dim>
				</port>
				<port id="1" precision="FP32">
					<dim>-1</dim>
					<dim>16</dim>
					<dim>-1</dim>
					<dim>80</dim>
				</port>
				<port id="2" precision="FP32">
					<dim>-1</dim>
					<dim>16</dim>
					<dim>-1</dim>
					<dim>80</dim>
				</port>
				<port id="3" precision="FP32" />
				<port id="4" precision="FP32" />
			</input>
			<output>
				<port id="5" precision="FP32" names="397,attn_output.5">
					<dim>-1</dim>
					<dim>16</dim>
					<dim>-1</dim>
					<dim>80</dim>
				</port>
			</output>
		</layer>
		<layer id="286" name="__module.wav2vec2.encoder.layers.1.attention/aten::transpose/Constant_3" type="Const" version="opset1">
			<data element_type="i32" shape="4" offset="39237200" size="16" />
			<output>
				<port id="0" precision="I32">
					<dim>4</dim>
				</port>
			</output>
		</layer>
		<layer id="287" name="__module.wav2vec2.encoder.layers.1.attention/aten::transpose/Transpose_3" type="Transpose" version="opset1">
			<input>
				<port id="0" precision="FP32">
					<dim>-1</dim>
					<dim>16</dim>
					<dim>-1</dim>
					<dim>80</dim>
				</port>
				<port id="1" precision="I32">
					<dim>4</dim>
				</port>
			</input>
			<output>
				<port id="2" precision="FP32" names="398">
					<dim>-1</dim>
					<dim>-1</dim>
					<dim>16</dim>
					<dim>80</dim>
				</port>
			</output>
		</layer>
		<layer id="288" name="Constant_31101" type="Const" version="opset1">
			<data element_type="i64" shape="3" offset="45795940" size="24" />
			<rt_info>
				<attribute name="precise" version="0" />
			</rt_info>
			<output>
				<port id="0" precision="I64">
					<dim>3</dim>
				</port>
			</output>
		</layer>
		<layer id="289" name="__module.wav2vec2.encoder.layers.1.attention/aten::reshape/Reshape" type="Reshape" version="opset1">
			<data special_zero="true" />
			<input>
				<port id="0" precision="FP32">
					<dim>-1</dim>
					<dim>-1</dim>
					<dim>16</dim>
					<dim>80</dim>
				</port>
				<port id="1" precision="I64">
					<dim>3</dim>
				</port>
			</input>
			<output>
				<port id="2" precision="FP32" names="401">
					<dim>-1</dim>
					<dim>-1</dim>
					<dim>1280</dim>
				</port>
			</output>
		</layer>
		<layer id="290" name="self.wav2vec2.encoder.layers.1.attention.out_proj.weight_compressed" type="Const" version="opset1">
			<data element_type="f16" shape="1280, 1280" offset="85150844" size="3276800" />
			<output>
				<port id="0" precision="FP16" names="self.wav2vec2.encoder.layers.1.attention.out_proj.weight">
					<dim>1280</dim>
					<dim>1280</dim>
				</port>
			</output>
		</layer>
		<layer id="291" name="self.wav2vec2.encoder.layers.1.attention.out_proj.weight" type="Convert" version="opset1">
			<data destination_type="f32" />
			<rt_info>
				<attribute name="decompression" version="0" />
			</rt_info>
			<input>
				<port id="0" precision="FP16">
					<dim>1280</dim>
					<dim>1280</dim>
				</port>
			</input>
			<output>
				<port id="1" precision="FP32">
					<dim>1280</dim>
					<dim>1280</dim>
				</port>
			</output>
		</layer>
		<layer id="292" name="__module.wav2vec2.encoder.layers.1.attention.out_proj/aten::linear/MatMul" type="MatMul" version="opset1">
			<data transpose_a="false" transpose_b="true" />
			<input>
				<port id="0" precision="FP32">
					<dim>-1</dim>
					<dim>-1</dim>
					<dim>1280</dim>
				</port>
				<port id="1" precision="FP32">
					<dim>1280</dim>
					<dim>1280</dim>
				</port>
			</input>
			<output>
				<port id="2" precision="FP32">
					<dim>-1</dim>
					<dim>-1</dim>
					<dim>1280</dim>
				</port>
			</output>
		</layer>
		<layer id="293" name="Constant_30000_compressed" type="Const" version="opset1">
			<data element_type="f16" shape="1, 1, 1280" offset="88427644" size="2560" />
			<output>
				<port id="0" precision="FP16">
					<dim>1</dim>
					<dim>1</dim>
					<dim>1280</dim>
				</port>
			</output>
		</layer>
		<layer id="294" name="Constant_30000" type="Convert" version="opset1">
			<data destination_type="f32" />
			<rt_info>
				<attribute name="decompression" version="0" />
			</rt_info>
			<input>
				<port id="0" precision="FP16">
					<dim>1</dim>
					<dim>1</dim>
					<dim>1280</dim>
				</port>
			</input>
			<output>
				<port id="1" precision="FP32">
					<dim>1</dim>
					<dim>1</dim>
					<dim>1280</dim>
				</port>
			</output>
		</layer>
		<layer id="295" name="__module.wav2vec2.encoder.layers.1.attention.out_proj/aten::linear/Add" type="Add" version="opset1">
			<data auto_broadcast="numpy" />
			<input>
				<port id="0" precision="FP32">
					<dim>-1</dim>
					<dim>-1</dim>
					<dim>1280</dim>
				</port>
				<port id="1" precision="FP32">
					<dim>1</dim>
					<dim>1</dim>
					<dim>1280</dim>
				</port>
			</input>
			<output>
				<port id="2" precision="FP32" names="405,input.77">
					<dim>-1</dim>
					<dim>-1</dim>
					<dim>1280</dim>
				</port>
			</output>
		</layer>
		<layer id="296" name="__module.wav2vec2.encoder.layers.1/aten::add/Add" type="Add" version="opset1">
			<data auto_broadcast="numpy" />
			<input>
				<port id="0" precision="FP32">
					<dim>-1</dim>
					<dim>-1</dim>
					<dim>1280</dim>
				</port>
				<port id="1" precision="FP32">
					<dim>-1</dim>
					<dim>-1</dim>
					<dim>1280</dim>
				</port>
			</input>
			<output>
				<port id="2" precision="FP32" names="407,input.79">
					<dim>-1</dim>
					<dim>-1</dim>
					<dim>1280</dim>
				</port>
			</output>
		</layer>
		<layer id="297" name="__module.wav2vec2.encoder.layers.1.final_layer_norm/aten::layer_norm/Multiply" type="Const" version="opset1">
			<data element_type="i32" shape="1" offset="11284" size="4" />
			<output>
				<port id="0" precision="I32">
					<dim>1</dim>
				</port>
			</output>
		</layer>
		<layer id="298" name="__module.wav2vec2.encoder.layers.1.final_layer_norm/aten::layer_norm/MVN" type="MVN" version="opset6">
			<data eps="9.9999997473787516e-06" normalize_variance="true" eps_mode="INSIDE_SQRT" />
			<input>
				<port id="0" precision="FP32">
					<dim>-1</dim>
					<dim>-1</dim>
					<dim>1280</dim>
				</port>
				<port id="1" precision="I32">
					<dim>1</dim>
				</port>
			</input>
			<output>
				<port id="2" precision="FP32">
					<dim>-1</dim>
					<dim>-1</dim>
					<dim>1280</dim>
				</port>
			</output>
		</layer>
		<layer id="299" name="Constant_30001_compressed" type="Const" version="opset1">
			<data element_type="f16" shape="1, 1, 1280" offset="88430204" size="2560" />
			<output>
				<port id="0" precision="FP16">
					<dim>1</dim>
					<dim>1</dim>
					<dim>1280</dim>
				</port>
			</output>
		</layer>
		<layer id="300" name="Constant_30001" type="Convert" version="opset1">
			<data destination_type="f32" />
			<rt_info>
				<attribute name="decompression" version="0" />
			</rt_info>
			<input>
				<port id="0" precision="FP16">
					<dim>1</dim>
					<dim>1</dim>
					<dim>1280</dim>
				</port>
			</input>
			<output>
				<port id="1" precision="FP32">
					<dim>1</dim>
					<dim>1</dim>
					<dim>1280</dim>
				</port>
			</output>
		</layer>
		<layer id="301" name="__module.wav2vec2.encoder.layers.1.final_layer_norm/aten::layer_norm/Multiply_1" type="Multiply" version="opset1">
			<data auto_broadcast="numpy" />
			<input>
				<port id="0" precision="FP32">
					<dim>-1</dim>
					<dim>-1</dim>
					<dim>1280</dim>
				</port>
				<port id="1" precision="FP32">
					<dim>1</dim>
					<dim>1</dim>
					<dim>1280</dim>
				</port>
			</input>
			<output>
				<port id="2" precision="FP32">
					<dim>-1</dim>
					<dim>-1</dim>
					<dim>1280</dim>
				</port>
			</output>
		</layer>
		<layer id="302" name="Constant_30002_compressed" type="Const" version="opset1">
			<data element_type="f16" shape="1, 1, 1280" offset="88432764" size="2560" />
			<output>
				<port id="0" precision="FP16">
					<dim>1</dim>
					<dim>1</dim>
					<dim>1280</dim>
				</port>
			</output>
		</layer>
		<layer id="303" name="Constant_30002" type="Convert" version="opset1">
			<data destination_type="f32" />
			<rt_info>
				<attribute name="decompression" version="0" />
			</rt_info>
			<input>
				<port id="0" precision="FP16">
					<dim>1</dim>
					<dim>1</dim>
					<dim>1280</dim>
				</port>
			</input>
			<output>
				<port id="1" precision="FP32">
					<dim>1</dim>
					<dim>1</dim>
					<dim>1280</dim>
				</port>
			</output>
		</layer>
		<layer id="304" name="__module.wav2vec2.encoder.layers.1.final_layer_norm/aten::layer_norm/Add" type="Add" version="opset1">
			<data auto_broadcast="numpy" />
			<input>
				<port id="0" precision="FP32">
					<dim>-1</dim>
					<dim>-1</dim>
					<dim>1280</dim>
				</port>
				<port id="1" precision="FP32">
					<dim>1</dim>
					<dim>1</dim>
					<dim>1280</dim>
				</port>
			</input>
			<output>
				<port id="2" precision="FP32" names="411,input.81">
					<dim>-1</dim>
					<dim>-1</dim>
					<dim>1280</dim>
				</port>
			</output>
		</layer>
		<layer id="305" name="self.wav2vec2.encoder.layers.1.feed_forward.intermediate_dense.weight_compressed" type="Const" version="opset1">
			<data element_type="f16" shape="5120, 1280" offset="88435324" size="13107200" />
			<output>
				<port id="0" precision="FP16" names="self.wav2vec2.encoder.layers.1.feed_forward.intermediate_dense.weight">
					<dim>5120</dim>
					<dim>1280</dim>
				</port>
			</output>
		</layer>
		<layer id="306" name="self.wav2vec2.encoder.layers.1.feed_forward.intermediate_dense.weight" type="Convert" version="opset1">
			<data destination_type="f32" />
			<rt_info>
				<attribute name="decompression" version="0" />
			</rt_info>
			<input>
				<port id="0" precision="FP16">
					<dim>5120</dim>
					<dim>1280</dim>
				</port>
			</input>
			<output>
				<port id="1" precision="FP32">
					<dim>5120</dim>
					<dim>1280</dim>
				</port>
			</output>
		</layer>
		<layer id="307" name="__module.wav2vec2.encoder.layers.1.feed_forward.intermediate_dense/aten::linear/MatMul" type="MatMul" version="opset1">
			<data transpose_a="false" transpose_b="true" />
			<input>
				<port id="0" precision="FP32">
					<dim>-1</dim>
					<dim>-1</dim>
					<dim>1280</dim>
				</port>
				<port id="1" precision="FP32">
					<dim>5120</dim>
					<dim>1280</dim>
				</port>
			</input>
			<output>
				<port id="2" precision="FP32">
					<dim>-1</dim>
					<dim>-1</dim>
					<dim>5120</dim>
				</port>
			</output>
		</layer>
		<layer id="308" name="Constant_30003_compressed" type="Const" version="opset1">
			<data element_type="f16" shape="1, 1, 5120" offset="101542524" size="10240" />
			<output>
				<port id="0" precision="FP16">
					<dim>1</dim>
					<dim>1</dim>
					<dim>5120</dim>
				</port>
			</output>
		</layer>
		<layer id="309" name="Constant_30003" type="Convert" version="opset1">
			<data destination_type="f32" />
			<rt_info>
				<attribute name="decompression" version="0" />
			</rt_info>
			<input>
				<port id="0" precision="FP16">
					<dim>1</dim>
					<dim>1</dim>
					<dim>5120</dim>
				</port>
			</input>
			<output>
				<port id="1" precision="FP32">
					<dim>1</dim>
					<dim>1</dim>
					<dim>5120</dim>
				</port>
			</output>
		</layer>
		<layer id="310" name="__module.wav2vec2.encoder.layers.1.feed_forward.intermediate_dense/aten::linear/Add" type="Add" version="opset1">
			<data auto_broadcast="numpy" />
			<input>
				<port id="0" precision="FP32">
					<dim>-1</dim>
					<dim>-1</dim>
					<dim>5120</dim>
				</port>
				<port id="1" precision="FP32">
					<dim>1</dim>
					<dim>1</dim>
					<dim>5120</dim>
				</port>
			</input>
			<output>
				<port id="2" precision="FP32" names="419,input.83">
					<dim>-1</dim>
					<dim>-1</dim>
					<dim>5120</dim>
				</port>
			</output>
		</layer>
		<layer id="311" name="__module.wav2vec2.encoder.layers.1.feed_forward.intermediate_act_fn/aten::gelu/Gelu" type="Gelu" version="opset7">
			<data approximation_mode="ERF" />
			<input>
				<port id="0" precision="FP32">
					<dim>-1</dim>
					<dim>-1</dim>
					<dim>5120</dim>
				</port>
			</input>
			<output>
				<port id="1" precision="FP32" names="420,input.85">
					<dim>-1</dim>
					<dim>-1</dim>
					<dim>5120</dim>
				</port>
			</output>
		</layer>
		<layer id="312" name="self.wav2vec2.encoder.layers.1.feed_forward.output_dense.weight_compressed" type="Const" version="opset1">
			<data element_type="f16" shape="1280, 5120" offset="101552764" size="13107200" />
			<output>
				<port id="0" precision="FP16" names="self.wav2vec2.encoder.layers.1.feed_forward.output_dense.weight">
					<dim>1280</dim>
					<dim>5120</dim>
				</port>
			</output>
		</layer>
		<layer id="313" name="self.wav2vec2.encoder.layers.1.feed_forward.output_dense.weight" type="Convert" version="opset1">
			<data destination_type="f32" />
			<rt_info>
				<attribute name="decompression" version="0" />
			</rt_info>
			<input>
				<port id="0" precision="FP16">
					<dim>1280</dim>
					<dim>5120</dim>
				</port>
			</input>
			<output>
				<port id="1" precision="FP32">
					<dim>1280</dim>
					<dim>5120</dim>
				</port>
			</output>
		</layer>
		<layer id="314" name="__module.wav2vec2.encoder.layers.1.feed_forward.output_dense/aten::linear/MatMul" type="MatMul" version="opset1">
			<data transpose_a="false" transpose_b="true" />
			<input>
				<port id="0" precision="FP32">
					<dim>-1</dim>
					<dim>-1</dim>
					<dim>5120</dim>
				</port>
				<port id="1" precision="FP32">
					<dim>1280</dim>
					<dim>5120</dim>
				</port>
			</input>
			<output>
				<port id="2" precision="FP32">
					<dim>-1</dim>
					<dim>-1</dim>
					<dim>1280</dim>
				</port>
			</output>
		</layer>
		<layer id="315" name="Constant_30004_compressed" type="Const" version="opset1">
			<data element_type="f16" shape="1, 1, 1280" offset="114659964" size="2560" />
			<output>
				<port id="0" precision="FP16">
					<dim>1</dim>
					<dim>1</dim>
					<dim>1280</dim>
				</port>
			</output>
		</layer>
		<layer id="316" name="Constant_30004" type="Convert" version="opset1">
			<data destination_type="f32" />
			<rt_info>
				<attribute name="decompression" version="0" />
			</rt_info>
			<input>
				<port id="0" precision="FP16">
					<dim>1</dim>
					<dim>1</dim>
					<dim>1280</dim>
				</port>
			</input>
			<output>
				<port id="1" precision="FP32">
					<dim>1</dim>
					<dim>1</dim>
					<dim>1280</dim>
				</port>
			</output>
		</layer>
		<layer id="317" name="__module.wav2vec2.encoder.layers.1.feed_forward.output_dense/aten::linear/Add" type="Add" version="opset1">
			<data auto_broadcast="numpy" />
			<input>
				<port id="0" precision="FP32">
					<dim>-1</dim>
					<dim>-1</dim>
					<dim>1280</dim>
				</port>
				<port id="1" precision="FP32">
					<dim>1</dim>
					<dim>1</dim>
					<dim>1280</dim>
				</port>
			</input>
			<output>
				<port id="2" precision="FP32" names="424,input.89">
					<dim>-1</dim>
					<dim>-1</dim>
					<dim>1280</dim>
				</port>
			</output>
		</layer>
		<layer id="318" name="__module.wav2vec2.encoder.layers.1/aten::add/Add_1" type="Add" version="opset1">
			<data auto_broadcast="numpy" />
			<input>
				<port id="0" precision="FP32">
					<dim>-1</dim>
					<dim>-1</dim>
					<dim>1280</dim>
				</port>
				<port id="1" precision="FP32">
					<dim>-1</dim>
					<dim>-1</dim>
					<dim>1280</dim>
				</port>
			</input>
			<output>
				<port id="2" precision="FP32" names="426,input.91">
					<dim>-1</dim>
					<dim>-1</dim>
					<dim>1280</dim>
				</port>
			</output>
		</layer>
		<layer id="319" name="__module.wav2vec2.encoder.layers.2.layer_norm/aten::layer_norm/Multiply" type="Const" version="opset1">
			<data element_type="i32" shape="1" offset="11284" size="4" />
			<output>
				<port id="0" precision="I32">
					<dim>1</dim>
				</port>
			</output>
		</layer>
		<layer id="320" name="__module.wav2vec2.encoder.layers.2.layer_norm/aten::layer_norm/MVN" type="MVN" version="opset6">
			<data eps="9.9999997473787516e-06" normalize_variance="true" eps_mode="INSIDE_SQRT" />
			<input>
				<port id="0" precision="FP32">
					<dim>-1</dim>
					<dim>-1</dim>
					<dim>1280</dim>
				</port>
				<port id="1" precision="I32">
					<dim>1</dim>
				</port>
			</input>
			<output>
				<port id="2" precision="FP32">
					<dim>-1</dim>
					<dim>-1</dim>
					<dim>1280</dim>
				</port>
			</output>
		</layer>
		<layer id="321" name="Constant_30005_compressed" type="Const" version="opset1">
			<data element_type="f16" shape="1, 1, 1280" offset="114662524" size="2560" />
			<output>
				<port id="0" precision="FP16">
					<dim>1</dim>
					<dim>1</dim>
					<dim>1280</dim>
				</port>
			</output>
		</layer>
		<layer id="322" name="Constant_30005" type="Convert" version="opset1">
			<data destination_type="f32" />
			<rt_info>
				<attribute name="decompression" version="0" />
			</rt_info>
			<input>
				<port id="0" precision="FP16">
					<dim>1</dim>
					<dim>1</dim>
					<dim>1280</dim>
				</port>
			</input>
			<output>
				<port id="1" precision="FP32">
					<dim>1</dim>
					<dim>1</dim>
					<dim>1280</dim>
				</port>
			</output>
		</layer>
		<layer id="323" name="__module.wav2vec2.encoder.layers.2.layer_norm/aten::layer_norm/Multiply_1" type="Multiply" version="opset1">
			<data auto_broadcast="numpy" />
			<input>
				<port id="0" precision="FP32">
					<dim>-1</dim>
					<dim>-1</dim>
					<dim>1280</dim>
				</port>
				<port id="1" precision="FP32">
					<dim>1</dim>
					<dim>1</dim>
					<dim>1280</dim>
				</port>
			</input>
			<output>
				<port id="2" precision="FP32">
					<dim>-1</dim>
					<dim>-1</dim>
					<dim>1280</dim>
				</port>
			</output>
		</layer>
		<layer id="324" name="Constant_30006_compressed" type="Const" version="opset1">
			<data element_type="f16" shape="1, 1, 1280" offset="114665084" size="2560" />
			<output>
				<port id="0" precision="FP16">
					<dim>1</dim>
					<dim>1</dim>
					<dim>1280</dim>
				</port>
			</output>
		</layer>
		<layer id="325" name="Constant_30006" type="Convert" version="opset1">
			<data destination_type="f32" />
			<rt_info>
				<attribute name="decompression" version="0" />
			</rt_info>
			<input>
				<port id="0" precision="FP16">
					<dim>1</dim>
					<dim>1</dim>
					<dim>1280</dim>
				</port>
			</input>
			<output>
				<port id="1" precision="FP32">
					<dim>1</dim>
					<dim>1</dim>
					<dim>1280</dim>
				</port>
			</output>
		</layer>
		<layer id="326" name="__module.wav2vec2.encoder.layers.2.layer_norm/aten::layer_norm/Add" type="Add" version="opset1">
			<data auto_broadcast="numpy" />
			<input>
				<port id="0" precision="FP32">
					<dim>-1</dim>
					<dim>-1</dim>
					<dim>1280</dim>
				</port>
				<port id="1" precision="FP32">
					<dim>1</dim>
					<dim>1</dim>
					<dim>1280</dim>
				</port>
			</input>
			<output>
				<port id="2" precision="FP32" names="435,hidden_states.43">
					<dim>-1</dim>
					<dim>-1</dim>
					<dim>1280</dim>
				</port>
			</output>
		</layer>
		<layer id="327" name="self.wav2vec2.encoder.layers.2.attention.q_proj.weight_compressed" type="Const" version="opset1">
			<data element_type="f16" shape="1280, 1280" offset="114667644" size="3276800" />
			<output>
				<port id="0" precision="FP16" names="self.wav2vec2.encoder.layers.2.attention.q_proj.weight">
					<dim>1280</dim>
					<dim>1280</dim>
				</port>
			</output>
		</layer>
		<layer id="328" name="self.wav2vec2.encoder.layers.2.attention.q_proj.weight" type="Convert" version="opset1">
			<data destination_type="f32" />
			<rt_info>
				<attribute name="decompression" version="0" />
			</rt_info>
			<input>
				<port id="0" precision="FP16">
					<dim>1280</dim>
					<dim>1280</dim>
				</port>
			</input>
			<output>
				<port id="1" precision="FP32">
					<dim>1280</dim>
					<dim>1280</dim>
				</port>
			</output>
		</layer>
		<layer id="329" name="__module.wav2vec2.encoder.layers.2.attention.q_proj/aten::linear/MatMul" type="MatMul" version="opset1">
			<data transpose_a="false" transpose_b="true" />
			<input>
				<port id="0" precision="FP32">
					<dim>-1</dim>
					<dim>-1</dim>
					<dim>1280</dim>
				</port>
				<port id="1" precision="FP32">
					<dim>1280</dim>
					<dim>1280</dim>
				</port>
			</input>
			<output>
				<port id="2" precision="FP32">
					<dim>-1</dim>
					<dim>-1</dim>
					<dim>1280</dim>
				</port>
			</output>
		</layer>
		<layer id="330" name="Constant_30007_compressed" type="Const" version="opset1">
			<data element_type="f16" shape="1, 1, 1280" offset="117944444" size="2560" />
			<output>
				<port id="0" precision="FP16">
					<dim>1</dim>
					<dim>1</dim>
					<dim>1280</dim>
				</port>
			</output>
		</layer>
		<layer id="331" name="Constant_30007" type="Convert" version="opset1">
			<data destination_type="f32" />
			<rt_info>
				<attribute name="decompression" version="0" />
			</rt_info>
			<input>
				<port id="0" precision="FP16">
					<dim>1</dim>
					<dim>1</dim>
					<dim>1280</dim>
				</port>
			</input>
			<output>
				<port id="1" precision="FP32">
					<dim>1</dim>
					<dim>1</dim>
					<dim>1280</dim>
				</port>
			</output>
		</layer>
		<layer id="332" name="__module.wav2vec2.encoder.layers.2.attention.q_proj/aten::linear/Add" type="Add" version="opset1">
			<data auto_broadcast="numpy" />
			<input>
				<port id="0" precision="FP32">
					<dim>-1</dim>
					<dim>-1</dim>
					<dim>1280</dim>
				</port>
				<port id="1" precision="FP32">
					<dim>1</dim>
					<dim>1</dim>
					<dim>1280</dim>
				</port>
			</input>
			<output>
				<port id="2" precision="FP32" names="444">
					<dim>-1</dim>
					<dim>-1</dim>
					<dim>1280</dim>
				</port>
			</output>
		</layer>
		<layer id="333" name="Constant_31102" type="Const" version="opset1">
			<data element_type="i64" shape="4" offset="39237168" size="32" />
			<rt_info>
				<attribute name="precise" version="0" />
			</rt_info>
			<output>
				<port id="0" precision="I64">
					<dim>4</dim>
				</port>
			</output>
		</layer>
		<layer id="334" name="__module.wav2vec2.encoder.layers.2.attention/aten::view/Reshape" type="Reshape" version="opset1">
			<data special_zero="true" />
			<input>
				<port id="0" precision="FP32">
					<dim>-1</dim>
					<dim>-1</dim>
					<dim>1280</dim>
				</port>
				<port id="1" precision="I64">
					<dim>4</dim>
				</port>
			</input>
			<output>
				<port id="2" precision="FP32" names="446">
					<dim>-1</dim>
					<dim>-1</dim>
					<dim>16</dim>
					<dim>80</dim>
				</port>
			</output>
		</layer>
		<layer id="335" name="__module.wav2vec2.encoder.layers.2.attention/aten::transpose/Constant" type="Const" version="opset1">
			<data element_type="i32" shape="4" offset="39237200" size="16" />
			<output>
				<port id="0" precision="I32">
					<dim>4</dim>
				</port>
			</output>
		</layer>
		<layer id="336" name="__module.wav2vec2.encoder.layers.2.attention/aten::transpose/Transpose" type="Transpose" version="opset1">
			<input>
				<port id="0" precision="FP32">
					<dim>-1</dim>
					<dim>-1</dim>
					<dim>16</dim>
					<dim>80</dim>
				</port>
				<port id="1" precision="I32">
					<dim>4</dim>
				</port>
			</input>
			<output>
				<port id="2" precision="FP32" names="447,query.5">
					<dim>-1</dim>
					<dim>16</dim>
					<dim>-1</dim>
					<dim>80</dim>
				</port>
			</output>
		</layer>
		<layer id="337" name="self.wav2vec2.encoder.layers.2.attention.k_proj.weight_compressed" type="Const" version="opset1">
			<data element_type="f16" shape="1280, 1280" offset="117947004" size="3276800" />
			<output>
				<port id="0" precision="FP16" names="self.wav2vec2.encoder.layers.2.attention.k_proj.weight">
					<dim>1280</dim>
					<dim>1280</dim>
				</port>
			</output>
		</layer>
		<layer id="338" name="self.wav2vec2.encoder.layers.2.attention.k_proj.weight" type="Convert" version="opset1">
			<data destination_type="f32" />
			<rt_info>
				<attribute name="decompression" version="0" />
			</rt_info>
			<input>
				<port id="0" precision="FP16">
					<dim>1280</dim>
					<dim>1280</dim>
				</port>
			</input>
			<output>
				<port id="1" precision="FP32">
					<dim>1280</dim>
					<dim>1280</dim>
				</port>
			</output>
		</layer>
		<layer id="339" name="__module.wav2vec2.encoder.layers.2.attention.k_proj/aten::linear/MatMul" type="MatMul" version="opset1">
			<data transpose_a="false" transpose_b="true" />
			<input>
				<port id="0" precision="FP32">
					<dim>-1</dim>
					<dim>-1</dim>
					<dim>1280</dim>
				</port>
				<port id="1" precision="FP32">
					<dim>1280</dim>
					<dim>1280</dim>
				</port>
			</input>
			<output>
…
		<edge from-layer="3071" from-port="0" to-layer="3072" to-port="1" />
		<edge from-layer="3072" from-port="2" to-layer="3074" to-port="0" />
		<edge from-layer="3073" from-port="0" to-layer="3074" to-port="1" />
		<edge from-layer="3074" from-port="2" to-layer="3097" to-port="0" />
		<edge from-layer="3075" from-port="0" to-layer="3076" to-port="0" />
		<edge from-layer="3076" from-port="1" to-layer="3077" to-port="1" />
		<edge from-layer="3077" from-port="2" to-layer="3080" to-port="0" />
		<edge from-layer="3078" from-port="0" to-layer="3079" to-port="0" />
		<edge from-layer="3079" from-port="1" to-layer="3080" to-port="1" />
		<edge from-layer="3080" from-port="2" to-layer="3082" to-port="0" />
		<edge from-layer="3081" from-port="0" to-layer="3082" to-port="1" />
		<edge from-layer="3082" from-port="2" to-layer="3084" to-port="0" />
		<edge from-layer="3083" from-port="0" to-layer="3084" to-port="1" />
		<edge from-layer="3084" from-port="2" to-layer="3097" to-port="1" />
		<edge from-layer="3085" from-port="0" to-layer="3086" to-port="0" />
		<edge from-layer="3086" from-port="1" to-layer="3087" to-port="1" />
		<edge from-layer="3087" from-port="2" to-layer="3090" to-port="0" />
		<edge from-layer="3088" from-port="0" to-layer="3089" to-port="0" />
		<edge from-layer="3089" from-port="1" to-layer="3090" to-port="1" />
		<edge from-layer="3090" from-port="2" to-layer="3092" to-port="0" />
		<edge from-layer="3091" from-port="0" to-layer="3092" to-port="1" />
		<edge from-layer="3092" from-port="2" to-layer="3094" to-port="0" />
		<edge from-layer="3093" from-port="0" to-layer="3094" to-port="1" />
		<edge from-layer="3094" from-port="2" to-layer="3097" to-port="2" />
		<edge from-layer="3095" from-port="0" to-layer="3096" to-port="0" />
		<edge from-layer="3096" from-port="1" to-layer="3097" to-port="3" />
		<edge from-layer="3097" from-port="5" to-layer="3099" to-port="0" />
		<edge from-layer="3098" from-port="0" to-layer="3099" to-port="1" />
		<edge from-layer="3099" from-port="2" to-layer="3101" to-port="0" />
		<edge from-layer="3100" from-port="0" to-layer="3101" to-port="1" />
		<edge from-layer="3101" from-port="2" to-layer="3104" to-port="0" />
		<edge from-layer="3102" from-port="0" to-layer="3103" to-port="0" />
		<edge from-layer="3103" from-port="1" to-layer="3104" to-port="1" />
		<edge from-layer="3104" from-port="2" to-layer="3107" to-port="0" />
		<edge from-layer="3105" from-port="0" to-layer="3106" to-port="0" />
		<edge from-layer="3106" from-port="1" to-layer="3107" to-port="1" />
		<edge from-layer="3107" from-port="2" to-layer="3108" to-port="1" />
		<edge from-layer="3108" from-port="2" to-layer="3130" to-port="0" />
		<edge from-layer="3108" from-port="2" to-layer="3110" to-port="0" />
		<edge from-layer="3109" from-port="0" to-layer="3110" to-port="1" />
		<edge from-layer="3110" from-port="2" to-layer="3113" to-port="0" />
		<edge from-layer="3111" from-port="0" to-layer="3112" to-port="0" />
		<edge from-layer="3112" from-port="1" to-layer="3113" to-port="1" />
		<edge from-layer="3113" from-port="2" to-layer="3116" to-port="0" />
		<edge from-layer="3114" from-port="0" to-layer="3115" to-port="0" />
		<edge from-layer="3115" from-port="1" to-layer="3116" to-port="1" />
		<edge from-layer="3116" from-port="2" to-layer="3119" to-port="0" />
		<edge from-layer="3117" from-port="0" to-layer="3118" to-port="0" />
		<edge from-layer="3118" from-port="1" to-layer="3119" to-port="1" />
		<edge from-layer="3119" from-port="2" to-layer="3122" to-port="0" />
		<edge from-layer="3120" from-port="0" to-layer="3121" to-port="0" />
		<edge from-layer="3121" from-port="1" to-layer="3122" to-port="1" />
		<edge from-layer="3122" from-port="2" to-layer="3123" to-port="0" />
		<edge from-layer="3123" from-port="1" to-layer="3126" to-port="0" />
		<edge from-layer="3124" from-port="0" to-layer="3125" to-port="0" />
		<edge from-layer="3125" from-port="1" to-layer="3126" to-port="1" />
		<edge from-layer="3126" from-port="2" to-layer="3129" to-port="0" />
		<edge from-layer="3127" from-port="0" to-layer="3128" to-port="0" />
		<edge from-layer="3128" from-port="1" to-layer="3129" to-port="1" />
		<edge from-layer="3129" from-port="2" to-layer="3130" to-port="1" />
		<edge from-layer="3130" from-port="2" to-layer="3132" to-port="0" />
		<edge from-layer="3130" from-port="2" to-layer="3182" to-port="0" />
		<edge from-layer="3131" from-port="0" to-layer="3132" to-port="1" />
		<edge from-layer="3132" from-port="2" to-layer="3135" to-port="0" />
		<edge from-layer="3133" from-port="0" to-layer="3134" to-port="0" />
		<edge from-layer="3134" from-port="1" to-layer="3135" to-port="1" />
		<edge from-layer="3135" from-port="2" to-layer="3138" to-port="0" />
		<edge from-layer="3136" from-port="0" to-layer="3137" to-port="0" />
		<edge from-layer="3137" from-port="1" to-layer="3138" to-port="1" />
		<edge from-layer="3138" from-port="2" to-layer="3151" to-port="0" />
		<edge from-layer="3138" from-port="2" to-layer="3141" to-port="0" />
		<edge from-layer="3138" from-port="2" to-layer="3161" to-port="0" />
		<edge from-layer="3139" from-port="0" to-layer="3140" to-port="0" />
		<edge from-layer="3140" from-port="1" to-layer="3141" to-port="1" />
		<edge from-layer="3141" from-port="2" to-layer="3144" to-port="0" />
		<edge from-layer="3142" from-port="0" to-layer="3143" to-port="0" />
		<edge from-layer="3143" from-port="1" to-layer="3144" to-port="1" />
		<edge from-layer="3144" from-port="2" to-layer="3146" to-port="0" />
		<edge from-layer="3145" from-port="0" to-layer="3146" to-port="1" />
		<edge from-layer="3146" from-port="2" to-layer="3148" to-port="0" />
		<edge from-layer="3147" from-port="0" to-layer="3148" to-port="1" />
		<edge from-layer="3148" from-port="2" to-layer="3171" to-port="0" />
		<edge from-layer="3149" from-port="0" to-layer="3150" to-port="0" />
		<edge from-layer="3150" from-port="1" to-layer="3151" to-port="1" />
		<edge from-layer="3151" from-port="2" to-layer="3154" to-port="0" />
		<edge from-layer="3152" from-port="0" to-layer="3153" to-port="0" />
		<edge from-layer="3153" from-port="1" to-layer="3154" to-port="1" />
		<edge from-layer="3154" from-port="2" to-layer="3156" to-port="0" />
		<edge from-layer="3155" from-port="0" to-layer="3156" to-port="1" />
		<edge from-layer="3156" from-port="2" to-layer="3158" to-port="0" />
		<edge from-layer="3157" from-port="0" to-layer="3158" to-port="1" />
		<edge from-layer="3158" from-port="2" to-layer="3171" to-port="1" />
		<edge from-layer="3159" from-port="0" to-layer="3160" to-port="0" />
		<edge from-layer="3160" from-port="1" to-layer="3161" to-port="1" />
		<edge from-layer="3161" from-port="2" to-layer="3164" to-port="0" />
		<edge from-layer="3162" from-port="0" to-layer="3163" to-port="0" />
		<edge from-layer="3163" from-port="1" to-layer="3164" to-port="1" />
		<edge from-layer="3164" from-port="2" to-layer="3166" to-port="0" />
		<edge from-layer="3165" from-port="0" to-layer="3166" to-port="1" />
		<edge from-layer="3166" from-port="2" to-layer="3168" to-port="0" />
		<edge from-layer="3167" from-port="0" to-layer="3168" to-port="1" />
		<edge from-layer="3168" from-port="2" to-layer="3171" to-port="2" />
		<edge from-layer="3169" from-port="0" to-layer="3170" to-port="0" />
		<edge from-layer="3170" from-port="1" to-layer="3171" to-port="3" />
		<edge from-layer="3171" from-port="5" to-layer="3173" to-port="0" />
		<edge from-layer="3172" from-port="0" to-layer="3173" to-port="1" />
		<edge from-layer="3173" from-port="2" to-layer="3175" to-port="0" />
		<edge from-layer="3174" from-port="0" to-layer="3175" to-port="1" />
		<edge from-layer="3175" from-port="2" to-layer="3178" to-port="0" />
		<edge from-layer="3176" from-port="0" to-layer="3177" to-port="0" />
		<edge from-layer="3177" from-port="1" to-layer="3178" to-port="1" />
		<edge from-layer="3178" from-port="2" to-layer="3181" to-port="0" />
		<edge from-layer="3179" from-port="0" to-layer="3180" to-port="0" />
		<edge from-layer="3180" from-port="1" to-layer="3181" to-port="1" />
		<edge from-layer="3181" from-port="2" to-layer="3182" to-port="1" />
		<edge from-layer="3182" from-port="2" to-layer="3184" to-port="0" />
		<edge from-layer="3182" from-port="2" to-layer="3204" to-port="0" />
		<edge from-layer="3183" from-port="0" to-layer="3184" to-port="1" />
		<edge from-layer="3184" from-port="2" to-layer="3187" to-port="0" />
		<edge from-layer="3185" from-port="0" to-layer="3186" to-port="0" />
		<edge from-layer="3186" from-port="1" to-layer="3187" to-port="1" />
		<edge from-layer="3187" from-port="2" to-layer="3190" to-port="0" />
		<edge from-layer="3188" from-port="0" to-layer="3189" to-port="0" />
		<edge from-layer="3189" from-port="1" to-layer="3190" to-port="1" />
		<edge from-layer="3190" from-port="2" to-layer="3193" to-port="0" />
		<edge from-layer="3191" from-port="0" to-layer="3192" to-port="0" />
		<edge from-layer="3192" from-port="1" to-layer="3193" to-port="1" />
		<edge from-layer="3193" from-port="2" to-layer="3196" to-port="0" />
		<edge from-layer="3194" from-port="0" to-layer="3195" to-port="0" />
		<edge from-layer="3195" from-port="1" to-layer="3196" to-port="1" />
		<edge from-layer="3196" from-port="2" to-layer="3197" to-port="0" />
		<edge from-layer="3197" from-port="1" to-layer="3200" to-port="0" />
		<edge from-layer="3198" from-port="0" to-layer="3199" to-port="0" />
		<edge from-layer="3199" from-port="1" to-layer="3200" to-port="1" />
		<edge from-layer="3200" from-port="2" to-layer="3203" to-port="0" />
		<edge from-layer="3201" from-port="0" to-layer="3202" to-port="0" />
		<edge from-layer="3202" from-port="1" to-layer="3203" to-port="1" />
		<edge from-layer="3203" from-port="2" to-layer="3204" to-port="1" />
		<edge from-layer="3204" from-port="2" to-layer="3206" to-port="0" />
		<edge from-layer="3204" from-port="2" to-layer="3256" to-port="0" />
		<edge from-layer="3205" from-port="0" to-layer="3206" to-port="1" />
		<edge from-layer="3206" from-port="2" to-layer="3209" to-port="0" />
		<edge from-layer="3207" from-port="0" to-layer="3208" to-port="0" />
		<edge from-layer="3208" from-port="1" to-layer="3209" to-port="1" />
		<edge from-layer="3209" from-port="2" to-layer="3212" to-port="0" />
		<edge from-layer="3210" from-port="0" to-layer="3211" to-port="0" />
		<edge from-layer="3211" from-port="1" to-layer="3212" to-port="1" />
		<edge from-layer="3212" from-port="2" to-layer="3215" to-port="0" />
		<edge from-layer="3212" from-port="2" to-layer="3235" to-port="0" />
		<edge from-layer="3212" from-port="2" to-layer="3225" to-port="0" />
		<edge from-layer="3213" from-port="0" to-layer="3214" to-port="0" />
		<edge from-layer="3214" from-port="1" to-layer="3215" to-port="1" />
		<edge from-layer="3215" from-port="2" to-layer="3218" to-port="0" />
		<edge from-layer="3216" from-port="0" to-layer="3217" to-port="0" />
		<edge from-layer="3217" from-port="1" to-layer="3218" to-port="1" />
		<edge from-layer="3218" from-port="2" to-layer="3220" to-port="0" />
		<edge from-layer="3219" from-port="0" to-layer="3220" to-port="1" />
		<edge from-layer="3220" from-port="2" to-layer="3222" to-port="0" />
		<edge from-layer="3221" from-port="0" to-layer="3222" to-port="1" />
		<edge from-layer="3222" from-port="2" to-layer="3245" to-port="0" />
		<edge from-layer="3223" from-port="0" to-layer="3224" to-port="0" />
		<edge from-layer="3224" from-port="1" to-layer="3225" to-port="1" />
		<edge from-layer="3225" from-port="2" to-layer="3228" to-port="0" />
		<edge from-layer="3226" from-port="0" to-layer="3227" to-port="0" />
		<edge from-layer="3227" from-port="1" to-layer="3228" to-port="1" />
		<edge from-layer="3228" from-port="2" to-layer="3230" to-port="0" />
		<edge from-layer="3229" from-port="0" to-layer="3230" to-port="1" />
		<edge from-layer="3230" from-port="2" to-layer="3232" to-port="0" />
		<edge from-layer="3231" from-port="0" to-layer="3232" to-port="1" />
		<edge from-layer="3232" from-port="2" to-layer="3245" to-port="1" />
		<edge from-layer="3233" from-port="0" to-layer="3234" to-port="0" />
		<edge from-layer="3234" from-port="1" to-layer="3235" to-port="1" />
		<edge from-layer="3235" from-port="2" to-layer="3238" to-port="0" />
		<edge from-layer="3236" from-port="0" to-layer="3237" to-port="0" />
		<edge from-layer="3237" from-port="1" to-layer="3238" to-port="1" />
		<edge from-layer="3238" from-port="2" to-layer="3240" to-port="0" />
		<edge from-layer="3239" from-port="0" to-layer="3240" to-port="1" />
		<edge from-layer="3240" from-port="2" to-layer="3242" to-port="0" />
		<edge from-layer="3241" from-port="0" to-layer="3242" to-port="1" />
		<edge from-layer="3242" from-port="2" to-layer="3245" to-port="2" />
		<edge from-layer="3243" from-port="0" to-layer="3244" to-port="0" />
		<edge from-layer="3244" from-port="1" to-layer="3245" to-port="3" />
		<edge from-layer="3245" from-port="5" to-layer="3247" to-port="0" />
		<edge from-layer="3246" from-port="0" to-layer="3247" to-port="1" />
		<edge from-layer="3247" from-port="2" to-layer="3249" to-port="0" />
		<edge from-layer="3248" from-port="0" to-layer="3249" to-port="1" />
		<edge from-layer="3249" from-port="2" to-layer="3252" to-port="0" />
		<edge from-layer="3250" from-port="0" to-layer="3251" to-port="0" />
		<edge from-layer="3251" from-port="1" to-layer="3252" to-port="1" />
		<edge from-layer="3252" from-port="2" to-layer="3255" to-port="0" />
		<edge from-layer="3253" from-port="0" to-layer="3254" to-port="0" />
		<edge from-layer="3254" from-port="1" to-layer="3255" to-port="1" />
		<edge from-layer="3255" from-port="2" to-layer="3256" to-port="1" />
		<edge from-layer="3256" from-port="2" to-layer="3258" to-port="0" />
		<edge from-layer="3256" from-port="2" to-layer="3278" to-port="0" />
		<edge from-layer="3257" from-port="0" to-layer="3258" to-port="1" />
		<edge from-layer="3258" from-port="2" to-layer="3261" to-port="0" />
		<edge from-layer="3259" from-port="0" to-layer="3260" to-port="0" />
		<edge from-layer="3260" from-port="1" to-layer="3261" to-port="1" />
		<edge from-layer="3261" from-port="2" to-layer="3264" to-port="0" />
		<edge from-layer="3262" from-port="0" to-layer="3263" to-port="0" />
		<edge from-layer="3263" from-port="1" to-layer="3264" to-port="1" />
		<edge from-layer="3264" from-port="2" to-layer="3267" to-port="0" />
		<edge from-layer="3265" from-port="0" to-layer="3266" to-port="0" />
		<edge from-layer="3266" from-port="1" to-layer="3267" to-port="1" />
		<edge from-layer="3267" from-port="2" to-layer="3270" to-port="0" />
		<edge from-layer="3268" from-port="0" to-layer="3269" to-port="0" />
		<edge from-layer="3269" from-port="1" to-layer="3270" to-port="1" />
		<edge from-layer="3270" from-port="2" to-layer="3271" to-port="0" />
		<edge from-layer="3271" from-port="1" to-layer="3274" to-port="0" />
		<edge from-layer="3272" from-port="0" to-layer="3273" to-port="0" />
		<edge from-layer="3273" from-port="1" to-layer="3274" to-port="1" />
		<edge from-layer="3274" from-port="2" to-layer="3277" to-port="0" />
		<edge from-layer="3275" from-port="0" to-layer="3276" to-port="0" />
		<edge from-layer="3276" from-port="1" to-layer="3277" to-port="1" />
		<edge from-layer="3277" from-port="2" to-layer="3278" to-port="1" />
		<edge from-layer="3278" from-port="2" to-layer="3330" to-port="0" />
		<edge from-layer="3278" from-port="2" to-layer="3280" to-port="0" />
		<edge from-layer="3279" from-port="0" to-layer="3280" to-port="1" />
		<edge from-layer="3280" from-port="2" to-layer="3283" to-port="0" />
		<edge from-layer="3281" from-port="0" to-layer="3282" to-port="0" />
		<edge from-layer="3282" from-port="1" to-layer="3283" to-port="1" />
		<edge from-layer="3283" from-port="2" to-layer="3286" to-port="0" />
		<edge from-layer="3284" from-port="0" to-layer="3285" to-port="0" />
		<edge from-layer="3285" from-port="1" to-layer="3286" to-port="1" />
		<edge from-layer="3286" from-port="2" to-layer="3299" to-port="0" />
		<edge from-layer="3286" from-port="2" to-layer="3289" to-port="0" />
		<edge from-layer="3286" from-port="2" to-layer="3309" to-port="0" />
		<edge from-layer="3287" from-port="0" to-layer="3288" to-port="0" />
		<edge from-layer="3288" from-port="1" to-layer="3289" to-port="1" />
		<edge from-layer="3289" from-port="2" to-layer="3292" to-port="0" />
		<edge from-layer="3290" from-port="0" to-layer="3291" to-port="0" />
		<edge from-layer="3291" from-port="1" to-layer="3292" to-port="1" />
		<edge from-layer="3292" from-port="2" to-layer="3294" to-port="0" />
		<edge from-layer="3293" from-port="0" to-layer="3294" to-port="1" />
		<edge from-layer="3294" from-port="2" to-layer="3296" to-port="0" />
		<edge from-layer="3295" from-port="0" to-layer="3296" to-port="1" />
		<edge from-layer="3296" from-port="2" to-layer="3319" to-port="0" />
		<edge from-layer="3297" from-port="0" to-layer="3298" to-port="0" />
		<edge from-layer="3298" from-port="1" to-layer="3299" to-port="1" />
		<edge from-layer="3299" from-port="2" to-layer="3302" to-port="0" />
		<edge from-layer="3300" from-port="0" to-layer="3301" to-port="0" />
		<edge from-layer="3301" from-port="1" to-layer="3302" to-port="1" />
		<edge from-layer="3302" from-port="2" to-layer="3304" to-port="0" />
		<edge from-layer="3303" from-port="0" to-layer="3304" to-port="1" />
		<edge from-layer="3304" from-port="2" to-layer="3306" to-port="0" />
		<edge from-layer="3305" from-port="0" to-layer="3306" to-port="1" />
		<edge from-layer="3306" from-port="2" to-layer="3319" to-port="1" />
		<edge from-layer="3307" from-port="0" to-layer="3308" to-port="0" />
		<edge from-layer="3308" from-port="1" to-layer="3309" to-port="1" />
		<edge from-layer="3309" from-port="2" to-layer="3312" to-port="0" />
		<edge from-layer="3310" from-port="0" to-layer="3311" to-port="0" />
		<edge from-layer="3311" from-port="1" to-layer="3312" to-port="1" />
		<edge from-layer="3312" from-port="2" to-layer="3314" to-port="0" />
		<edge from-layer="3313" from-port="0" to-layer="3314" to-port="1" />
		<edge from-layer="3314" from-port="2" to-layer="3316" to-port="0" />
		<edge from-layer="3315" from-port="0" to-layer="3316" to-port="1" />
		<edge from-layer="3316" from-port="2" to-layer="3319" to-port="2" />
		<edge from-layer="3317" from-port="0" to-layer="3318" to-port="0" />
		<edge from-layer="3318" from-port="1" to-layer="3319" to-port="3" />
		<edge from-layer="3319" from-port="5" to-layer="3321" to-port="0" />
		<edge from-layer="3320" from-port="0" to-layer="3321" to-port="1" />
		<edge from-layer="3321" from-port="2" to-layer="3323" to-port="0" />
		<edge from-layer="3322" from-port="0" to-layer="3323" to-port="1" />
		<edge from-layer="3323" from-port="2" to-layer="3326" to-port="0" />
		<edge from-layer="3324" from-port="0" to-layer="3325" to-port="0" />
		<edge from-layer="3325" from-port="1" to-layer="3326" to-port="1" />
		<edge from-layer="3326" from-port="2" to-layer="3329" to-port="0" />
		<edge from-layer="3327" from-port="0" to-layer="3328" to-port="0" />
		<edge from-layer="3328" from-port="1" to-layer="3329" to-port="1" />
		<edge from-layer="3329" from-port="2" to-layer="3330" to-port="1" />
		<edge from-layer="3330" from-port="2" to-layer="3352" to-port="0" />
		<edge from-layer="3330" from-port="2" to-layer="3332" to-port="0" />
		<edge from-layer="3331" from-port="0" to-layer="3332" to-port="1" />
		<edge from-layer="3332" from-port="2" to-layer="3335" to-port="0" />
		<edge from-layer="3333" from-port="0" to-layer="3334" to-port="0" />
		<edge from-layer="3334" from-port="1" to-layer="3335" to-port="1" />
		<edge from-layer="3335" from-port="2" to-layer="3338" to-port="0" />
		<edge from-layer="3336" from-port="0" to-layer="3337" to-port="0" />
		<edge from-layer="3337" from-port="1" to-layer="3338" to-port="1" />
		<edge from-layer="3338" from-port="2" to-layer="3341" to-port="0" />
		<edge from-layer="3339" from-port="0" to-layer="3340" to-port="0" />
		<edge from-layer="3340" from-port="1" to-layer="3341" to-port="1" />
		<edge from-layer="3341" from-port="2" to-layer="3344" to-port="0" />
		<edge from-layer="3342" from-port="0" to-layer="3343" to-port="0" />
		<edge from-layer="3343" from-port="1" to-layer="3344" to-port="1" />
		<edge from-layer="3344" from-port="2" to-layer="3345" to-port="0" />
		<edge from-layer="3345" from-port="1" to-layer="3348" to-port="0" />
		<edge from-layer="3346" from-port="0" to-layer="3347" to-port="0" />
		<edge from-layer="3347" from-port="1" to-layer="3348" to-port="1" />
		<edge from-layer="3348" from-port="2" to-layer="3351" to-port="0" />
		<edge from-layer="3349" from-port="0" to-layer="3350" to-port="0" />
		<edge from-layer="3350" from-port="1" to-layer="3351" to-port="1" />
		<edge from-layer="3351" from-port="2" to-layer="3352" to-port="1" />
		<edge from-layer="3352" from-port="2" to-layer="3354" to-port="0" />
		<edge from-layer="3352" from-port="2" to-layer="3404" to-port="0" />
		<edge from-layer="3353" from-port="0" to-layer="3354" to-port="1" />
		<edge from-layer="3354" from-port="2" to-layer="3357" to-port="0" />
		<edge from-layer="3355" from-port="0" to-layer="3356" to-port="0" />
		<edge from-layer="3356" from-port="1" to-layer="3357" to-port="1" />
		<edge from-layer="3357" from-port="2" to-layer="3360" to-port="0" />
		<edge from-layer="3358" from-port="0" to-layer="3359" to-port="0" />
		<edge from-layer="3359" from-port="1" to-layer="3360" to-port="1" />
		<edge from-layer="3360" from-port="2" to-layer="3383" to-port="0" />
		<edge from-layer="3360" from-port="2" to-layer="3363" to-port="0" />
		<edge from-layer="3360" from-port="2" to-layer="3373" to-port="0" />
		<edge from-layer="3361" from-port="0" to-layer="3362" to-port="0" />
		<edge from-layer="3362" from-port="1" to-layer="3363" to-port="1" />
		<edge from-layer="3363" from-port="2" to-layer="3366" to-port="0" />
		<edge from-layer="3364" from-port="0" to-layer="3365" to-port="0" />
		<edge from-layer="3365" from-port="1" to-layer="3366" to-port="1" />
		<edge from-layer="3366" from-port="2" to-layer="3368" to-port="0" />
		<edge from-layer="3367" from-port="0" to-layer="3368" to-port="1" />
		<edge from-layer="3368" from-port="2" to-layer="3370" to-port="0" />
		<edge from-layer="3369" from-port="0" to-layer="3370" to-port="1" />
		<edge from-layer="3370" from-port="2" to-layer="3393" to-port="0" />
		<edge from-layer="3371" from-port="0" to-layer="3372" to-port="0" />
		<edge from-layer="3372" from-port="1" to-layer="3373" to-port="1" />
		<edge from-layer="3373" from-port="2" to-layer="3376" to-port="0" />
		<edge from-layer="3374" from-port="0" to-layer="3375" to-port="0" />
		<edge from-layer="3375" from-port="1" to-layer="3376" to-port="1" />
		<edge from-layer="3376" from-port="2" to-layer="3378" to-port="0" />
		<edge from-layer="3377" from-port="0" to-layer="3378" to-port="1" />
		<edge from-layer="3378" from-port="2" to-layer="3380" to-port="0" />
		<edge from-layer="3379" from-port="0" to-layer="3380" to-port="1" />
		<edge from-layer="3380" from-port="2" to-layer="3393" to-port="1" />
		<edge from-layer="3381" from-port="0" to-layer="3382" to-port="0" />
		<edge from-layer="3382" from-port="1" to-layer="3383" to-port="1" />
		<edge from-layer="3383" from-port="2" to-layer="3386" to-port="0" />
		<edge from-layer="3384" from-port="0" to-layer="3385" to-port="0" />
		<edge from-layer="3385" from-port="1" to-layer="3386" to-port="1" />
		<edge from-layer="3386" from-port="2" to-layer="3388" to-port="0" />
		<edge from-layer="3387" from-port="0" to-layer="3388" to-port="1" />
		<edge from-layer="3388" from-port="2" to-layer="3390" to-port="0" />
		<edge from-layer="3389" from-port="0" to-layer="3390" to-port="1" />
		<edge from-layer="3390" from-port="2" to-layer="3393" to-port="2" />
		<edge from-layer="3391" from-port="0" to-layer="3392" to-port="0" />
		<edge from-layer="3392" from-port="1" to-layer="3393" to-port="3" />
		<edge from-layer="3393" from-port="5" to-layer="3395" to-port="0" />
		<edge from-layer="3394" from-port="0" to-layer="3395" to-port="1" />
		<edge from-layer="3395" from-port="2" to-layer="3397" to-port="0" />
		<edge from-layer="3396" from-port="0" to-layer="3397" to-port="1" />
		<edge from-layer="3397" from-port="2" to-layer="3400" to-port="0" />
		<edge from-layer="3398" from-port="0" to-layer="3399" to-port="0" />
		<edge from-layer="3399" from-port="1" to-layer="3400" to-port="1" />
		<edge from-layer="3400" from-port="2" to-layer="3403" to-port="0" />
		<edge from-layer="3401" from-port="0" to-layer="3402" to-port="0" />
		<edge from-layer="3402" from-port="1" to-layer="3403" to-port="1" />
		<edge from-layer="3403" from-port="2" to-layer="3404" to-port="1" />
		<edge from-layer="3404" from-port="2" to-layer="3406" to-port="0" />
		<edge from-layer="3404" from-port="2" to-layer="3426" to-port="0" />
		<edge from-layer="3405" from-port="0" to-layer="3406" to-port="1" />
		<edge from-layer="3406" from-port="2" to-layer="3409" to-port="0" />
		<edge from-layer="3407" from-port="0" to-layer="3408" to-port="0" />
		<edge from-layer="3408" from-port="1" to-layer="3409" to-port="1" />
		<edge from-layer="3409" from-port="2" to-layer="3412" to-port="0" />
		<edge from-layer="3410" from-port="0" to-layer="3411" to-port="0" />
		<edge from-layer="3411" from-port="1" to-layer="3412" to-port="1" />
		<edge from-layer="3412" from-port="2" to-layer="3415" to-port="0" />
		<edge from-layer="3413" from-port="0" to-layer="3414" to-port="0" />
		<edge from-layer="3414" from-port="1" to-layer="3415" to-port="1" />
		<edge from-layer="3415" from-port="2" to-layer="3418" to-port="0" />
		<edge from-layer="3416" from-port="0" to-layer="3417" to-port="0" />
		<edge from-layer="3417" from-port="1" to-layer="3418" to-port="1" />
		<edge from-layer="3418" from-port="2" to-layer="3419" to-port="0" />
		<edge from-layer="3419" from-port="1" to-layer="3422" to-port="0" />
		<edge from-layer="3420" from-port="0" to-layer="3421" to-port="0" />
		<edge from-layer="3421" from-port="1" to-layer="3422" to-port="1" />
		<edge from-layer="3422" from-port="2" to-layer="3425" to-port="0" />
		<edge from-layer="3423" from-port="0" to-layer="3424" to-port="0" />
		<edge from-layer="3424" from-port="1" to-layer="3425" to-port="1" />
		<edge from-layer="3425" from-port="2" to-layer="3426" to-port="1" />
		<edge from-layer="3426" from-port="2" to-layer="3478" to-port="0" />
		<edge from-layer="3426" from-port="2" to-layer="3428" to-port="0" />
		<edge from-layer="3427" from-port="0" to-layer="3428" to-port="1" />
		<edge from-layer="3428" from-port="2" to-layer="3431" to-port="0" />
		<edge from-layer="3429" from-port="0" to-layer="3430" to-port="0" />
		<edge from-layer="3430" from-port="1" to-layer="3431" to-port="1" />
		<edge from-layer="3431" from-port="2" to-layer="3434" to-port="0" />
		<edge from-layer="3432" from-port="0" to-layer="3433" to-port="0" />
		<edge from-layer="3433" from-port="1" to-layer="3434" to-port="1" />
		<edge from-layer="3434" from-port="2" to-layer="3437" to-port="0" />
		<edge from-layer="3434" from-port="2" to-layer="3457" to-port="0" />
		<edge from-layer="3434" from-port="2" to-layer="3447" to-port="0" />
		<edge from-layer="3435" from-port="0" to-layer="3436" to-port="0" />
		<edge from-layer="3436" from-port="1" to-layer="3437" to-port="1" />
		<edge from-layer="3437" from-port="2" to-layer="3440" to-port="0" />
		<edge from-layer="3438" from-port="0" to-layer="3439" to-port="0" />
		<edge from-layer="3439" from-port="1" to-layer="3440" to-port="1" />
		<edge from-layer="3440" from-port="2" to-layer="3442" to-port="0" />
		<edge from-layer="3441" from-port="0" to-layer="3442" to-port="1" />
		<edge from-layer="3442" from-port="2" to-layer="3444" to-port="0" />
		<edge from-layer="3443" from-port="0" to-layer="3444" to-port="1" />
		<edge from-layer="3444" from-port="2" to-layer="3467" to-port="0" />
		<edge from-layer="3445" from-port="0" to-layer="3446" to-port="0" />
		<edge from-layer="3446" from-port="1" to-layer="3447" to-port="1" />
		<edge from-layer="3447" from-port="2" to-layer="3450" to-port="0" />
		<edge from-layer="3448" from-port="0" to-layer="3449" to-port="0" />
		<edge from-layer="3449" from-port="1" to-layer="3450" to-port="1" />
		<edge from-layer="3450" from-port="2" to-layer="3452" to-port="0" />
		<edge from-layer="3451" from-port="0" to-layer="3452" to-port="1" />
		<edge from-layer="3452" from-port="2" to-layer="3454" to-port="0" />
		<edge from-layer="3453" from-port="0" to-layer="3454" to-port="1" />
		<edge from-layer="3454" from-port="2" to-layer="3467" to-port="1" />
		<edge from-layer="3455" from-port="0" to-layer="3456" to-port="0" />
		<edge from-layer="3456" from-port="1" to-layer="3457" to-port="1" />
		<edge from-layer="3457" from-port="2" to-layer="3460" to-port="0" />
		<edge from-layer="3458" from-port="0" to-layer="3459" to-port="0" />
		<edge from-layer="3459" from-port="1" to-layer="3460" to-port="1" />
		<edge from-layer="3460" from-port="2" to-layer="3462" to-port="0" />
		<edge from-layer="3461" from-port="0" to-layer="3462" to-port="1" />
		<edge from-layer="3462" from-port="2" to-layer="3464" to-port="0" />
		<edge from-layer="3463" from-port="0" to-layer="3464" to-port="1" />
		<edge from-layer="3464" from-port="2" to-layer="3467" to-port="2" />
		<edge from-layer="3465" from-port="0" to-layer="3466" to-port="0" />
		<edge from-layer="3466" from-port="1" to-layer="3467" to-port="3" />
		<edge from-layer="3467" from-port="5" to-layer="3469" to-port="0" />
		<edge from-layer="3468" from-port="0" to-layer="3469" to-port="1" />
		<edge from-layer="3469" from-port="2" to-layer="3471" to-port="0" />
		<edge from-layer="3470" from-port="0" to-layer="3471" to-port="1" />
		<edge from-layer="3471" from-port="2" to-layer="3474" to-port="0" />
		<edge from-layer="3472" from-port="0" to-layer="3473" to-port="0" />
		<edge from-layer="3473" from-port="1" to-layer="3474" to-port="1" />
		<edge from-layer="3474" from-port="2" to-layer="3477" to-port="0" />
		<edge from-layer="3475" from-port="0" to-layer="3476" to-port="0" />
		<edge from-layer="3476" from-port="1" to-layer="3477" to-port="1" />
		<edge from-layer="3477" from-port="2" to-layer="3478" to-port="1" />
		<edge from-layer="3478" from-port="2" to-layer="3500" to-port="0" />
		<edge from-layer="3478" from-port="2" to-layer="3480" to-port="0" />
		<edge from-layer="3479" from-port="0" to-layer="3480" to-port="1" />
		<edge from-layer="3480" from-port="2" to-layer="3483" to-port="0" />
		<edge from-layer="3481" from-port="0" to-layer="3482" to-port="0" />
		<edge from-layer="3482" from-port="1" to-layer="3483" to-port="1" />
		<edge from-layer="3483" from-port="2" to-layer="3486" to-port="0" />
		<edge from-layer="3484" from-port="0" to-layer="3485" to-port="0" />
		<edge from-layer="3485" from-port="1" to-layer="3486" to-port="1" />
		<edge from-layer="3486" from-port="2" to-layer="3489" to-port="0" />
		<edge from-layer="3487" from-port="0" to-layer="3488" to-port="0" />
		<edge from-layer="3488" from-port="1" to-layer="3489" to-port="1" />
		<edge from-layer="3489" from-port="2" to-layer="3492" to-port="0" />
		<edge from-layer="3490" from-port="0" to-layer="3491" to-port="0" />
		<edge from-layer="3491" from-port="1" to-layer="3492" to-port="1" />
		<edge from-layer="3492" from-port="2" to-layer="3493" to-port="0" />
		<edge from-layer="3493" from-port="1" to-layer="3496" to-port="0" />
		<edge from-layer="3494" from-port="0" to-layer="3495" to-port="0" />
		<edge from-layer="3495" from-port="1" to-layer="3496" to-port="1" />
		<edge from-layer="3496" from-port="2" to-layer="3499" to-port="0" />
		<edge from-layer="3497" from-port="0" to-layer="3498" to-port="0" />
		<edge from-layer="3498" from-port="1" to-layer="3499" to-port="1" />
		<edge from-layer="3499" from-port="2" to-layer="3500" to-port="1" />
		<edge from-layer="3500" from-port="2" to-layer="3502" to-port="0" />
		<edge from-layer="3500" from-port="2" to-layer="3552" to-port="0" />
		<edge from-layer="3501" from-port="0" to-layer="3502" to-port="1" />
		<edge from-layer="3502" from-port="2" to-layer="3505" to-port="0" />
		<edge from-layer="3503" from-port="0" to-layer="3504" to-port="0" />
		<edge from-layer="3504" from-port="1" to-layer="3505" to-port="1" />
		<edge from-layer="3505" from-port="2" to-layer="3508" to-port="0" />
		<edge from-layer="3506" from-port="0" to-layer="3507" to-port="0" />
		<edge from-layer="3507" from-port="1" to-layer="3508" to-port="1" />
		<edge from-layer="3508" from-port="2" to-layer="3531" to-port="0" />
		<edge from-layer="3508" from-port="2" to-layer="3521" to-port="0" />
		<edge from-layer="3508" from-port="2" to-layer="3511" to-port="0" />
		<edge from-layer="3509" from-port="0" to-layer="3510" to-port="0" />
		<edge from-layer="3510" from-port="1" to-layer="3511" to-port="1" />
		<edge from-layer="3511" from-port="2" to-layer="3514" to-port="0" />
		<edge from-layer="3512" from-port="0" to-layer="3513" to-port="0" />
		<edge from-layer="3513" from-port="1" to-layer="3514" to-port="1" />
		<edge from-layer="3514" from-port="2" to-layer="3516" to-port="0" />
		<edge from-layer="3515" from-port="0" to-layer="3516" to-port="1" />
		<edge from-layer="3516" from-port="2" to-layer="3518" to-port="0" />
		<edge from-layer="3517" from-port="0" to-layer="3518" to-port="1" />
		<edge from-layer="3518" from-port="2" to-layer="3541" to-port="0" />
		<edge from-layer="3519" from-port="0" to-layer="3520" to-port="0" />
		<edge from-layer="3520" from-port="1" to-layer="3521" to-port="1" />
		<edge from-layer="3521" from-port="2" to-layer="3524" to-port="0" />
		<edge from-layer="3522" from-port="0" to-layer="3523" to-port="0" />
		<edge from-layer="3523" from-port="1" to-layer="3524" to-port="1" />
		<edge from-layer="3524" from-port="2" to-layer="3526" to-port="0" />
		<edge from-layer="3525" from-port="0" to-layer="3526" to-port="1" />
		<edge from-layer="3526" from-port="2" to-layer="3528" to-port="0" />
		<edge from-layer="3527" from-port="0" to-layer="3528" to-port="1" />
		<edge from-layer="3528" from-port="2" to-layer="3541" to-port="1" />
		<edge from-layer="3529" from-port="0" to-layer="3530" to-port="0" />
		<edge from-layer="3530" from-port="1" to-layer="3531" to-port="1" />
		<edge from-layer="3531" from-port="2" to-layer="3534" to-port="0" />
		<edge from-layer="3532" from-port="0" to-layer="3533" to-port="0" />
		<edge from-layer="3533" from-port="1" to-layer="3534" to-port="1" />
		<edge from-layer="3534" from-port="2" to-layer="3536" to-port="0" />
		<edge from-layer="3535" from-port="0" to-layer="3536" to-port="1" />
		<edge from-layer="3536" from-port="2" to-layer="3538" to-port="0" />
		<edge from-layer="3537" from-port="0" to-layer="3538" to-port="1" />
		<edge from-layer="3538" from-port="2" to-layer="3541" to-port="2" />
		<edge from-layer="3539" from-port="0" to-layer="3540" to-port="0" />
		<edge from-layer="3540" from-port="1" to-layer="3541" to-port="3" />
		<edge from-layer="3541" from-port="5" to-layer="3543" to-port="0" />
		<edge from-layer="3542" from-port="0" to-layer="3543" to-port="1" />
		<edge from-layer="3543" from-port="2" to-layer="3545" to-port="0" />
		<edge from-layer="3544" from-port="0" to-layer="3545" to-port="1" />
		<edge from-layer="3545" from-port="2" to-layer="3548" to-port="0" />
		<edge from-layer="3546" from-port="0" to-layer="3547" to-port="0" />
		<edge from-layer="3547" from-port="1" to-layer="3548" to-port="1" />
		<edge from-layer="3548" from-port="2" to-layer="3551" to-port="0" />
		<edge from-layer="3549" from-port="0" to-layer="3550" to-port="0" />
		<edge from-layer="3550" from-port="1" to-layer="3551" to-port="1" />
		<edge from-layer="3551" from-port="2" to-layer="3552" to-port="1" />
		<edge from-layer="3552" from-port="2" to-layer="3554" to-port="0" />
		<edge from-layer="3552" from-port="2" to-layer="3574" to-port="0" />
		<edge from-layer="3553" from-port="0" to-layer="3554" to-port="1" />
		<edge from-layer="3554" from-port="2" to-layer="3557" to-port="0" />
		<edge from-layer="3555" from-port="0" to-layer="3556" to-port="0" />
		<edge from-layer="3556" from-port="1" to-layer="3557" to-port="1" />
		<edge from-layer="3557" from-port="2" to-layer="3560" to-port="0" />
		<edge from-layer="3558" from-port="0" to-layer="3559" to-port="0" />
		<edge from-layer="3559" from-port="1" to-layer="3560" to-port="1" />
		<edge from-layer="3560" from-port="2" to-layer="3563" to-port="0" />
		<edge from-layer="3561" from-port="0" to-layer="3562" to-port="0" />
		<edge from-layer="3562" from-port="1" to-layer="3563" to-port="1" />
		<edge from-layer="3563" from-port="2" to-layer="3566" to-port="0" />
		<edge from-layer="3564" from-port="0" to-layer="3565" to-port="0" />
		<edge from-layer="3565" from-port="1" to-layer="3566" to-port="1" />
		<edge from-layer="3566" from-port="2" to-layer="3567" to-port="0" />
		<edge from-layer="3567" from-port="1" to-layer="3570" to-port="0" />
		<edge from-layer="3568" from-port="0" to-layer="3569" to-port="0" />
		<edge from-layer="3569" from-port="1" to-layer="3570" to-port="1" />
		<edge from-layer="3570" from-port="2" to-layer="3573" to-port="0" />
		<edge from-layer="3571" from-port="0" to-layer="3572" to-port="0" />
		<edge from-layer="3572" from-port="1" to-layer="3573" to-port="1" />
		<edge from-layer="3573" from-port="2" to-layer="3574" to-port="1" />
		<edge from-layer="3574" from-port="2" to-layer="3576" to-port="0" />
		<edge from-layer="3574" from-port="2" to-layer="3626" to-port="0" />
		<edge from-layer="3575" from-port="0" to-layer="3576" to-port="1" />
		<edge from-layer="3576" from-port="2" to-layer="3579" to-port="0" />
		<edge from-layer="3577" from-port="0" to-layer="3578" to-port="0" />
		<edge from-layer="3578" from-port="1" to-layer="3579" to-port="1" />
		<edge from-layer="3579" from-port="2" to-layer="3582" to-port="0" />
		<edge from-layer="3580" from-port="0" to-layer="3581" to-port="0" />
		<edge from-layer="3581" from-port="1" to-layer="3582" to-port="1" />
		<edge from-layer="3582" from-port="2" to-layer="3605" to-port="0" />
		<edge from-layer="3582" from-port="2" to-layer="3595" to-port="0" />
		<edge from-layer="3582" from-port="2" to-layer="3585" to-port="0" />
		<edge from-layer="3583" from-port="0" to-layer="3584" to-port="0" />
		<edge from-layer="3584" from-port="1" to-layer="3585" to-port="1" />
		<edge from-layer="3585" from-port="2" to-layer="3588" to-port="0" />
		<edge from-layer="3586" from-port="0" to-layer="3587" to-port="0" />
		<edge from-layer="3587" from-port="1" to-layer="3588" to-port="1" />
		<edge from-layer="3588" from-port="2" to-layer="3590" to-port="0" />
		<edge from-layer="3589" from-port="0" to-layer="3590" to-port="1" />
		<edge from-layer="3590" from-port="2" to-layer="3592" to-port="0" />
		<edge from-layer="3591" from-port="0" to-layer="3592" to-port="1" />
		<edge from-layer="3592" from-port="2" to-layer="3615" to-port="0" />
		<edge from-layer="3593" from-port="0" to-layer="3594" to-port="0" />
		<edge from-layer="3594" from-port="1" to-layer="3595" to-port="1" />
		<edge from-layer="3595" from-port="2" to-layer="3598" to-port="0" />
		<edge from-layer="3596" from-port="0" to-layer="3597" to-port="0" />
		<edge from-layer="3597" from-port="1" to-layer="3598" to-port="1" />
		<edge from-layer="3598" from-port="2" to-layer="3600" to-port="0" />
		<edge from-layer="3599" from-port="0" to-layer="3600" to-port="1" />
		<edge from-layer="3600" from-port="2" to-layer="3602" to-port="0" />
		<edge from-layer="3601" from-port="0" to-layer="3602" to-port="1" />
		<edge from-layer="3602" from-port="2" to-layer="3615" to-port="1" />
		<edge from-layer="3603" from-port="0" to-layer="3604" to-port="0" />
		<edge from-layer="3604" from-port="1" to-layer="3605" to-port="1" />
		<edge from-layer="3605" from-port="2" to-layer="3608" to-port="0" />
		<edge from-layer="3606" from-port="0" to-layer="3607" to-port="0" />
		<edge from-layer="3607" from-port="1" to-layer="3608" to-port="1" />
		<edge from-layer="3608" from-port="2" to-layer="3610" to-port="0" />
		<edge from-layer="3609" from-port="0" to-layer="3610" to-port="1" />
		<edge from-layer="3610" from-port="2" to-layer="3612" to-port="0" />
		<edge from-layer="3611" from-port="0" to-layer="3612" to-port="1" />
		<edge from-layer="3612" from-port="2" to-layer="3615" to-port="2" />
		<edge from-layer="3613" from-port="0" to-layer="3614" to-port="0" />
		<edge from-layer="3614" from-port="1" to-layer="3615" to-port="3" />
		<edge from-layer="3615" from-port="5" to-layer="3617" to-port="0" />
		<edge from-layer="3616" from-port="0" to-layer="3617" to-port="1" />
		<edge from-layer="3617" from-port="2" to-layer="3619" to-port="0" />
		<edge from-layer="3618" from-port="0" to-layer="3619" to-port="1" />
		<edge from-layer="3619" from-port="2" to-layer="3622" to-port="0" />
		<edge from-layer="3620" from-port="0" to-layer="3621" to-port="0" />
		<edge from-layer="3621" from-port="1" to-layer="3622" to-port="1" />
		<edge from-layer="3622" from-port="2" to-layer="3625" to-port="0" />
		<edge from-layer="3623" from-port="0" to-layer="3624" to-port="0" />
		<edge from-layer="3624" from-port="1" to-layer="3625" to-port="1" />
		<edge from-layer="3625" from-port="2" to-layer="3626" to-port="1" />
		<edge from-layer="3626" from-port="2" to-layer="3628" to-port="0" />
		<edge from-layer="3626" from-port="2" to-layer="3648" to-port="0" />
		<edge from-layer="3627" from-port="0" to-layer="3628" to-port="1" />
		<edge from-layer="3628" from-port="2" to-layer="3631" to-port="0" />
		<edge from-layer="3629" from-port="0" to-layer="3630" to-port="0" />
		<edge from-layer="3630" from-port="1" to-layer="3631" to-port="1" />
		<edge from-layer="3631" from-port="2" to-layer="3634" to-port="0" />
		<edge from-layer="3632" from-port="0" to-layer="3633" to-port="0" />
		<edge from-layer="3633" from-port="1" to-layer="3634" to-port="1" />
		<edge from-layer="3634" from-port="2" to-layer="3637" to-port="0" />
		<edge from-layer="3635" from-port="0" to-layer="3636" to-port="0" />
		<edge from-layer="3636" from-port="1" to-layer="3637" to-port="1" />
		<edge from-layer="3637" from-port="2" to-layer="3640" to-port="0" />
		<edge from-layer="3638" from-port="0" to-layer="3639" to-port="0" />
		<edge from-layer="3639" from-port="1" to-layer="3640" to-port="1" />
		<edge from-layer="3640" from-port="2" to-layer="3641" to-port="0" />
		<edge from-layer="3641" from-port="1" to-layer="3644" to-port="0" />
		<edge from-layer="3642" from-port="0" to-layer="3643" to-port="0" />
		<edge from-layer="3643" from-port="1" to-layer="3644" to-port="1" />
		<edge from-layer="3644" from-port="2" to-layer="3647" to-port="0" />
		<edge from-layer="3645" from-port="0" to-layer="3646" to-port="0" />
		<edge from-layer="3646" from-port="1" to-layer="3647" to-port="1" />
		<edge from-layer="3647" from-port="2" to-layer="3648" to-port="1" />
		<edge from-layer="3648" from-port="2" to-layer="3650" to-port="0" />
		<edge from-layer="3648" from-port="2" to-layer="3700" to-port="0" />
		<edge from-layer="3649" from-port="0" to-layer="3650" to-port="1" />
		<edge from-layer="3650" from-port="2" to-layer="3653" to-port="0" />
		<edge from-layer="3651" from-port="0" to-layer="3652" to-port="0" />
		<edge from-layer="3652" from-port="1" to-layer="3653" to-port="1" />
		<edge from-layer="3653" from-port="2" to-layer="3656" to-port="0" />
		<edge from-layer="3654" from-port="0" to-layer="3655" to-port="0" />
		<edge from-layer="3655" from-port="1" to-layer="3656" to-port="1" />
		<edge from-layer="3656" from-port="2" to-layer="3659" to-port="0" />
		<edge from-layer="3656" from-port="2" to-layer="3679" to-port="0" />
		<edge from-layer="3656" from-port="2" to-layer="3669" to-port="0" />
		<edge from-layer="3657" from-port="0" to-layer="3658" to-port="0" />
		<edge from-layer="3658" from-port="1" to-layer="3659" to-port="1" />
		<edge from-layer="3659" from-port="2" to-layer="3662" to-port="0" />
		<edge from-layer="3660" from-port="0" to-layer="3661" to-port="0" />
		<edge from-layer="3661" from-port="1" to-layer="3662" to-port="1" />
		<edge from-layer="3662" from-port="2" to-layer="3664" to-port="0" />
		<edge from-layer="3663" from-port="0" to-layer="3664" to-port="1" />
		<edge from-layer="3664" from-port="2" to-layer="3666" to-port="0" />
		<edge from-layer="3665" from-port="0" to-layer="3666" to-port="1" />
		<edge from-layer="3666" from-port="2" to-layer="3689" to-port="0" />
		<edge from-layer="3667" from-port="0" to-layer="3668" to-port="0" />
		<edge from-layer="3668" from-port="1" to-layer="3669" to-port="1" />
		<edge from-layer="3669" from-port="2" to-layer="3672" to-port="0" />
		<edge from-layer="3670" from-port="0" to-layer="3671" to-port="0" />
		<edge from-layer="3671" from-port="1" to-layer="3672" to-port="1" />
		<edge from-layer="3672" from-port="2" to-layer="3674" to-port="0" />
		<edge from-layer="3673" from-port="0" to-layer="3674" to-port="1" />
		<edge from-layer="3674" from-port="2" to-layer="3676" to-port="0" />
		<edge from-layer="3675" from-port="0" to-layer="3676" to-port="1" />
		<edge from-layer="3676" from-port="2" to-layer="3689" to-port="1" />
		<edge from-layer="3677" from-port="0" to-layer="3678" to-port="0" />
		<edge from-layer="3678" from-port="1" to-layer="3679" to-port="1" />
		<edge from-layer="3679" from-port="2" to-layer="3682" to-port="0" />
		<edge from-layer="3680" from-port="0" to-layer="3681" to-port="0" />
		<edge from-layer="3681" from-port="1" to-layer="3682" to-port="1" />
		<edge from-layer="3682" from-port="2" to-layer="3684" to-port="0" />
		<edge from-layer="3683" from-port="0" to-layer="3684" to-port="1" />
		<edge from-layer="3684" from-port="2" to-layer="3686" to-port="0" />
		<edge from-layer="3685" from-port="0" to-layer="3686" to-port="1" />
		<edge from-layer="3686" from-port="2" to-layer="3689" to-port="2" />
		<edge from-layer="3687" from-port="0" to-layer="3688" to-port="0" />
		<edge from-layer="3688" from-port="1" to-layer="3689" to-port="3" />
		<edge from-layer="3689" from-port="5" to-layer="3691" to-port="0" />
		<edge from-layer="3690" from-port="0" to-layer="3691" to-port="1" />
		<edge from-layer="3691" from-port="2" to-layer="3693" to-port="0" />
		<edge from-layer="3692" from-port="0" to-layer="3693" to-port="1" />
		<edge from-layer="3693" from-port="2" to-layer="3696" to-port="0" />
		<edge from-layer="3694" from-port="0" to-layer="3695" to-port="0" />
		<edge from-layer="3695" from-port="1" to-layer="3696" to-port="1" />
		<edge from-layer="3696" from-port="2" to-layer="3699" to-port="0" />
		<edge from-layer="3697" from-port="0" to-layer="3698" to-port="0" />
		<edge from-layer="3698" from-port="1" to-layer="3699" to-port="1" />
		<edge from-layer="3699" from-port="2" to-layer="3700" to-port="1" />
		<edge from-layer="3700" from-port="2" to-layer="3702" to-port="0" />
		<edge from-layer="3700" from-port="2" to-layer="3722" to-port="0" />
		<edge from-layer="3701" from-port="0" to-layer="3702" to-port="1" />
		<edge from-layer="3702" from-port="2" to-layer="3705" to-port="0" />
		<edge from-layer="3703" from-port="0" to-layer="3704" to-port="0" />
		<edge from-layer="3704" from-port="1" to-layer="3705" to-port="1" />
		<edge from-layer="3705" from-port="2" to-layer="3708" to-port="0" />
		<edge from-layer="3706" from-port="0" to-layer="3707" to-port="0" />
		<edge from-layer="3707" from-port="1" to-layer="3708" to-port="1" />
		<edge from-layer="3708" from-port="2" to-layer="3711" to-port="0" />
		<edge from-layer="3709" from-port="0" to-layer="3710" to-port="0" />
		<edge from-layer="3710" from-port="1" to-layer="3711" to-port="1" />
		<edge from-layer="3711" from-port="2" to-layer="3714" to-port="0" />
		<edge from-layer="3712" from-port="0" to-layer="3713" to-port="0" />
		<edge from-layer="3713" from-port="1" to-layer="3714" to-port="1" />
		<edge from-layer="3714" from-port="2" to-layer="3715" to-port="0" />
		<edge from-layer="3715" from-port="1" to-layer="3718" to-port="0" />
		<edge from-layer="3716" from-port="0" to-layer="3717" to-port="0" />
		<edge from-layer="3717" from-port="1" to-layer="3718" to-port="1" />
		<edge from-layer="3718" from-port="2" to-layer="3721" to-port="0" />
		<edge from-layer="3719" from-port="0" to-layer="3720" to-port="0" />
		<edge from-layer="3720" from-port="1" to-layer="3721" to-port="1" />
		<edge from-layer="3721" from-port="2" to-layer="3722" to-port="1" />
		<edge from-layer="3722" from-port="2" to-layer="3724" to-port="0" />
		<edge from-layer="3723" from-port="0" to-layer="3724" to-port="1" />
		<edge from-layer="3724" from-port="2" to-layer="3727" to-port="0" />
		<edge from-layer="3725" from-port="0" to-layer="3726" to-port="0" />
		<edge from-layer="3726" from-port="1" to-layer="3727" to-port="1" />
		<edge from-layer="3727" from-port="2" to-layer="3730" to-port="0" />
		<edge from-layer="3728" from-port="0" to-layer="3729" to-port="0" />
		<edge from-layer="3729" from-port="1" to-layer="3730" to-port="1" />
		<edge from-layer="3730" from-port="2" to-layer="3733" to-port="0" />
		<edge from-layer="3731" from-port="0" to-layer="3732" to-port="0" />
		<edge from-layer="3732" from-port="1" to-layer="3733" to-port="1" />
		<edge from-layer="3733" from-port="2" to-layer="3736" to-port="0" />
		<edge from-layer="3734" from-port="0" to-layer="3735" to-port="0" />
		<edge from-layer="3735" from-port="1" to-layer="3736" to-port="1" />
		<edge from-layer="3736" from-port="2" to-layer="3737" to-port="0" />
	</edges>
	<rt_info>
		<Runtime_version value="2025.4.1-20426-82bbf0292c5-releases/2025/4" />
		<conversion_parameters>
			<framework value="pytorch" />
			<is_python_object value="True" />
		</conversion_parameters>
		<optimum>
			<optimum_intel_version value="1.27.0" />
			<optimum_version value="2.1.0" />
			<pytorch_version value="2.10.0" />
			<transformers_version value="4.57.6" />
		</optimum>
	</rt_info>
</net>
